result/ExtremeC3/ExtremeC3.pth (torch_old, 240398 bytes, 405 tensors)

encoder.level1.conv.weight f4 [24, 3, 3, 3]
0	0x397e7322	0.00024266218
1	0xb8076d08	-3.228805e-05
2	0x3ca75e5f	0.020430742
3	0x3d143ff0	0.036193788
4	0x3d78017e	0.060548298
5	0x3dd27530	0.10276258
6	0x3da0d6ba	0.07853456
7	0x3db04bea	0.086082295
8	0x3dd79902	0.10527231
9	0xbc1b5be5	-0.009482359
10	0xbc3943cc	-0.011307668
11	0x3c761cdf	0.015021532
12	0x3ce3df15	0.027816335
13	0x3d41d922	0.047326215
14	0x3db0821b	0.08618566
15	0x3d8dcb24	0.069235116
16	0x3d851878	0.06498808
17	0x3da254d3	0.07926335
18	0xbcd6ddab	-0.026228746
19	0xbd303e07	-0.043027904
20	0xbccb7ddf	-0.024840293
21	0x3cdef225	0.027215073
22	0x3cd2e090	0.025741845
23	0x3d63ee63	0.055647265
24	0x3db2cdfb	0.08730694
25	0x3d8d038d	0.06885443
26	0x3da33fae	0.0797113
27	0xb2a87c58	-1.9614319e-08
28	0xb2b3c13c	-2.0926215e-08
29	0xb2b4e454	-2.105859e-08
30	0xb2b834b2	-2.1444382e-08
31	0xb2c52732	-2.2951642e-08
32	0xb2c6ddf3	-2.3151165e-08
33	0xb2beb766	-2.2202311e-08
34	0xb2cd91c7	-2.3931433e-08
35	0xb2cd3f18	-2.3893833e-08
36	0xb2b8bd8d	-2.1506617e-08
37	0xb2c3ecf5	-2.2808743e-08
38	0xb2c8ba9d	-2.3367926e-08
39	0xb2c52f53	-2.2955339e-08
40	0xb2d2ef5c	-2.4556066e-08
41	0xb2d86b29	-2.519444e-08
42	0xb2cdc89c	-2.3956368e-08
43	0xb2de34f9	-2.586829e-08
44	0xb2e080b5	-2.6135561e-08
45	0xb33656be	-4.245407e-08
46	0xb3398fd8	-4.3204494e-08
47	0xb3407ea4	-4.4818663e-08
48	0xb33d290f	-4.4042334e-08
49	0xb343cf13	-4.559031e-08
50	0xb34a4ec5	-4.710343e-08
51	0xb3486225	-4.665539e-08
52	0xb3525e4c	-4.8980198e-08
53	0xb354651f	-4.9452066e-08
54	0x00007f02	4.5562e-41
55	0x00001991	9.171e-42
56	0x0000245f	1.3047e-41
57	0x0000e676	8.2674e-41
58	0x8000cd21	-7.3586e-41
59	0x8000099c	-3.447e-42
60	0x000055af	3.0737e-41
61	0x00009905	5.4893e-41
62	0x00006a6a	3.8174e-41
63	0x0000c13f	6.9324e-41
64	0x0000890d	4.9165e-41
65	0x0000c4fe	7.0667e-41
66	0x000053cb	3.0059e-41
67	0x0000baaf	6.697e-41
68	0x8000e9f1	-8.3922e-41
69	0x8000fe39	-9.1198e-41
70	0x000070fb	4.053e-41
71	0x8000fa05	-8.969e-41
72	0x0000ee02	8.5381e-41
73	0x00004fd1	2.8633e-41
74	0x00004cbf	2.7531e-41
75	0x0000e8a8	8.3461e-41
76	0x000015b2	7.783e-42
77	0x8000403c	-2.3043e-41
78	0x80006b52	-3.8499e-41
79	0x00006c64	3.8883e-41
80	0x000077e7	4.3013e-41
81	0x80002272	-1.2357e-41
82	0x00009d4d	5.6429e-41
83	0x00005705	3.1217e-41
84	0x0000258f	1.3473e-41
85	0x8000708d	-4.0376e-41
86	0x0000795d	4.3537e-41
87	0x00001bce	9.974e-42
88	0x00005cc8	3.3284e-41
89	0x00003895	2.0298e-41
90	0x0000e455	8.191e-41
91	0x80003f0e	-2.262e-41
92	0x00006f58	3.9943e-41
93	0x8000a68f	-5.975e-41
94	0x000091b4	5.2268e-41
95	0x00001a15	9.356e-42
96	0x0000d179	7.5145e-41
97	0x0000e222	8.1121e-41
98	0x00008a14	4.9533e-41
99	0x0000d5c0	7.6679e-41
100	0x0000e511	8.2174e-41
101	0x800053ad	-3.0017e-41
102	0x8000b968	-6.6511e-41
103	0x00009c83	5.6146e-41
104	0x0000ca1d	7.2505e-41
105	0x800021cc	-1.2124e-41
106	0x80005a58	-3.2409e-41
107	0x8000ca00	-7.2464e-41
108	0xbdc1fea2	-0.094723955
109	0xbe024244	-0.12720591
110	0xbdc2ddea	-0.09514983
111	0xbe23f349	-0.16010775
112	0xbdfbc723	-0.12293842
113	0xbda03051	-0.078217156
114	0xbdc9d094	-0.09854236
115	0xbd967aef	-0.073476665
116	0xbe02a532	-0.1275833
117	0x3e48bf39	0.19604196
118	0x3e2e2202	0.1700516
119	0x3e5d0394	0.21583396
120	0x3e0bc1eb	0.13648193
121	0x3e2b26f4	0.16714078
122	0x3e6663ad	0.22498961
123	0x3e408c6b	0.18803565
124	0x3e79123a	0.24323359
125	0x3e5c2e7c	0.21502107
126	0xbdadb8e4	-0.08482531
127	0xbdaffcab	-0.085931145
128	0xbda54cf6	-0.0807132
129	0xbdfe92da	-0.124303535
130	0xbdb0c510	-0.08631337
131	0xbe06c0ee	-0.13159534
132	0xbd825d8c	-0.06365499
133	0xbdf125fe	-0.117748246
134	0xbdba867f	-0.09107684
135	0xbd5587c1	-0.05213142
136	0xbda5fbb7	-0.081046514
137	0xbd8b0dd2	-0.067897454
138	0xbd984216	-0.0743448
139	0xbdd58c58	-0.10427159
140	0xbdc8f723	-0.098127626
141	0xbdcef09a	-0.10104485
142	0xbe01d353	-0.1267827
143	0xbdca6c54	-0.09883943
144	0xbb2add2d	-0.0026071772
145	0xbcd9d765	-0.026591966
146	0xbc06e04a	-0.008232186
147	0xbc915a66	-0.0177433
148	0xbd291272	-0.041277356
149	0xbcd19f9d	-0.025588805
150	0xbd1eb662	-0.038748153
151	0xbd72a55b	-0.059239727
152	0xbcb4d614	-0.022074737
153	0x3d817101	0.06320382
154	0x3d1fd283	0.03901912
155	0x3d47dace	0.048792653
156	0x3d368aec	0.04456608
157	0x3cc3b93f	0.023892043
158	0x3ceb095c	0.028690986
159	0x3ced74e9	0.028986411
160	0x3c503af9	0.012709373
161	0x3d1bde79	0.038053963
162	0xbd82727c	-0.063694924
163	0x3d53c1a6	0.05169835
164	0xbd9f387d	-0.07774446
165	0x3d597f85	0.053100128
166	0x3e71c90e	0.23611853
167	0x3c03f76c	0.008054595
168	0xbdc415d4	-0.09574476
169	0x3dacf3b1	0.08444918
170	0xbe249aea	-0.1607472
171	0xbc2dcfe3	-0.010608646
172	0x3d8cee35	0.06881372
173	0xbd1dfb31	-0.038569633
174	0x3dead64c	0.11466655
175	0x3e8735db	0.26408276
176	0x3d20a632	0.039220996
177	0xbdc52937	-0.09627002
178	0x3d6d13a3	0.057880055
179	0xbe34b707	-0.17647944
180	0xbd61a070	-0.055084646
181	0xbc1f92ce	-0.009739591
182	0xbdc6c439	-0.09705395
183	0x3d8aa959	0.06770582
184	0x3e2898c3	0.16464524
185	0xbcf280d2	-0.029602442
186	0xbe053b77	-0.13010965
187	0xbc614f22	-0.013751777
188	0xbe5d67c8	-0.2162162
189	0x3e3801ee	0.17969486
190	0x3dee32b9	0.11630768
191	0x3e1caa31	0.15299298
192	0x3e15d0a2	0.14630368
193	0x3e27f9c9	0.16403879
194	0x3df17d0b	0.11791428
195	0x3e20d6d6	0.15706953
196	0x3e3de2e9	0.1854359
197	0x3e4b4b04	0.19852835
198	0xbe1ce6ee	-0.15322468
199	0xbe29a55b	-0.16566984
200	0xbe5ec534	-0.21754915
201	0xbe6b117d	-0.2295589
202	0xbe91455f	-0.28373238
203	0xbe5fd1bc	-0.21857351
204	0xbe59efac	-0.21282834
205	0xbe5dd5f4	-0.21663648
206	0xbe4679de	-0.19382426
207	0x3d6fc143	0.058533918
208	0x3d1f2a11	0.038858477
209	0x3dbf06a1	0.09327436
210	0xbc236a37	-0.009974054
211	0x3d4af35d	0.049548496
212	0x3d8c80a9	0.068604775
213	0x3d8ee625	0.0697749
214	0x3cd33f6e	0.025787082
215	0x3d522a56	0.051309906
216	0xb0d2c2a4	-1.5334831e-09
217	0xb0d744c8	-1.5662858e-09
218	0xb0d8fded	-1.5788238e-09
219	0xb0d96b08	-1.5819248e-09
220	0xb0dc7d50	-1.6042723e-09
221	0xb0ded8bd	-1.6214227e-09
222	0xb0ccb68d	-1.4894838e-09
223	0xb0d0a92b	-1.5182072e-09
224	0xb0d1ed93	-1.5274274e-09
225	0xb0b40d85	-1.3100566e-09
226	0xb0b74501	-1.3334615e-09
227	0xb0b95d0a	-1.3486965e-09
228	0xb0b86a45	-1.3417966e-09
229	0xb0baaa47	-1.3581677e-09
230	0xb0bd8d17	-1.379166e-09
231	0xb0abbc0a	-1.2495331e-09
232	0xb0aeada0	-1.2709513e-09
233	0xb0b0da0c	-1.2867658e-09
234	0xb108cd1d	-1.9907198e-09
235	0xb1096115	-1.9991309e-09
236	0xb10a85a4	-2.015761e-09
237	0xb109c237	-2.0046522e-09
238	0xb109f88e	-2.007741e-09
239	0xb10b98c5	-2.0314002e-09
240	0xb103db81	-1.9187782e-09
241	0xb104593f	-1.9259259e-09
242	0xb105be88	-1.9462352e-09
243	0xbd557a63	-0.05211867
244	0xbdb33025	-0.08749417
245	0x3d3c02cb	0.0459011
246	0xbd559789	-0.05214647
247	0xbd8c6f46	-0.06857161
248	0x3d67ee8d	0.056623984
249	0xbda5d8ca	-0.0809799
250	0xbda43072	-0.08017053
251	0xbb7fc034	-0.0039024474
252	0xbe1d1d45	-0.15343197
253	0xbe1ecf0d	-0.15508671
254	0xbdfe207a	-0.12408538
255	0xbd63104f	-0.055435475

encoder.level1.bn.weight f4 [24]
0	0x3e58686a	0.21133581
1	0xbbdc5355	-0.006723801
2	0x000025a7	1.3507e-41
3	0x80001a49	-9.43e-42
4	0x3e5f39f6	0.21799454
5	0x3e6924d4	0.22767955
6	0x3ec0ef7f	0.3768272
7	0x3e9daaa1	0.30794242
8	0xbaae83ee	-0.0013314465
9	0x3e5be4ef	0.2147405
10	0x1aa91f41	6.9947255e-23
11	0x3eaaf58b	0.3339046
12	0x3ee82eb4	0.45348132
13	0xbb5e7ea4	-0.0033949995
14	0x3f0438d1	0.51649195
15	0xbca0e504	-0.019640453
16	0xbbcc30fc	-0.0062314253
17	0xbc04c004	-0.008102421
18	0x00000913	3.255e-42
19	0x3e718297	0.23584972
20	0x3e666a19	0.2250141
21	0x8cd64b22	-3.301714e-31
22	0x3e4c525b	0.19953291
23	0x3e5e286f	0.21695112

encoder.level1.bn.bias f4 [24]
0	0x3d3aa0e1	0.045563582
1	0xb9e927b3	-0.000444708
2	0x000005ef	2.129e-42
3	0x000047f6	2.5815e-41
4	0x3dbb3917	0.091417484
5	0x3d00ab6d	0.031413484
6	0xbdf3a2a2	-0.11896254
7	0x3cd5d031	0.02610025
8	0xb82f0755	-4.173008e-05
9	0x3d0a1089	0.033707175
10	0x0551f05d	9.8712805e-36
11	0xbe1dbb91	-0.15403582
12	0xbd8d9bc7	-0.06914478
13	0xb8a39323	-7.799852e-05
14	0xbd576a91	-0.052591864
15	0xb90e28c7	-0.00013557366
16	0xb6d0e400	-6.2254258e-06
17	0xb9440f23	-0.00018697655
18	0x00000140	4.48e-43
19	0x3da587b4	0.08082524
20	0x3e3116a5	0.17293794
21	0x00004ae4	2.6866e-41
22	0x3ca469cf	0.020069985
23	0x3e2c6efd	0.16839214

encoder.level1.bn.running_mean f4 [24]
0	0xb876e118	-5.8860605e-05
1	0x3428930c	1.5699715e-07
2	0x34186931	1.4194372e-07
3	0x33d36fb7	9.845774e-08
4	0xb7b031a5	-2.1003952e-05
5	0x38b50d69	8.6332504e-05
6	0xb7906515	-1.7213208e-05
7	0xb76700a5	-1.3768823e-05
8	0x3496cbfe	2.80881e-07
9	0x38f166f2	0.000115109506
10	0x346c9357	2.2032815e-07
11	0xb693227c	-4.384956e-06
12	0xb7c2f543	-2.3240811e-05
13	0x340ce96f	1.3123439e-07
14	0x385425bf	5.0579893e-05
15	0x3463f363	2.1229566e-07
16	0x3403fa81	1.2291459e-07
17	0x3458e2b5	2.0199043e-07
18	0x33fd5f1a	1.17985294e-07
19	0x36f0c92c	7.175977e-06
20	0x361c1b39	2.3261657e-06
21	0x3420d9fc	1.4980463e-07
22	0xb8d69bbf	-0.00010233325
23	0xb6e29d3c	-6.7536293e-06

encoder.level1.bn.running_var f4 [24]
0	0x37b723b8	2.1831933e-05
1	0x2a343ff5	1.6009401e-13
2	0x2a0e25c1	1.2625232e-13
3	0x29793434	5.5334386e-14
4	0x3636493d	2.7162744e-06
5	0x373bdf47	1.1198054e-05
6	0x3535b419	6.768983e-07
7	0x3660eb4c	3.3515562e-06
8	0x2a7f966b	2.2700736e-13
9	0x3714b9ae	8.864719e-06
10	0x2a41706a	1.7180845e-13
11	0x35dd0f02	1.6470151e-06
12	0x3858f05f	5.1722276e-05
13	0x2a04752f	1.1764611e-13
14	0x3814720e	3.539217e-05
15	0x2a425569	1.7260294e-13
16	0x29a49f24	7.3106695e-14
17	0x2a155c63	1.3265912e-13
18	0x29b78682	8.150166e-14
19	0x35b2018e	1.3262486e-06
20	0x369ac927	4.612975e-06
21	0x29ebc5f1	1.0470434e-13
22	0x36df2b2e	6.6509447e-06
23	0x3692315e	4.356886e-06

encoder.level1.act.weight f4 [24]
0	0xba6ade4e	-0.00089595176
1	0xb4937f51	-2.7473519e-07
2	0x8000c092	-6.9081e-41
3	0x000035db	1.932e-41
4	0x3acfdced	0.0015858688
5	0xbc7efa5c	-0.01556262
6	0x3ed2cc13	0.4117132
7	0xbda53d9b	-0.08068391
8	0x332e872d	4.0635474e-08
9	0xbbc3c3a3	-0.0059742494
10	0x80044363	-3.91516e-40
11	0x3ec856c9	0.39128712
12	0xbcfba534	-0.030718423
13	0x33fbafa9	1.1720051e-07
14	0x3dc23c0d	0.0948411
15	0x3514ce4d	5.5434504e-07
16	0xb29888cf	-1.7757342e-08
17	0xb4d4a9cd	-3.9611623e-07
18	0x80003f62	-2.2737e-41
19	0x3a8310ac	0.0009999475
20	0x3b86f3ce	0.0041184193
21	0x80006348	-3.5615e-41
22	0xbc39078c	-0.011293303
23	0xba67ef8d	-0.00088476465

encoder.b1.bn.weight f4 [27]
0	0x3e3417f9	0.1758727
1	0xbcb564ae	-0.022142734
2	0x00000150	4.71e-43
3	0x00002057	1.1601e-41
4	0x3e8133b9	0.25234774
5	0x3e25f21a	0.16205636
6	0x3ecd920c	0.40150487
7	0x3e480a0f	0.19535087
8	0xbc8f53cc	-0.017496012
9	0x3e641395	0.22273095
10	0xab653ef3	-8.1444503e-13
11	0x3ec1bd79	0.3783987
12	0x3e510853	0.20413332
13	0xbca042a9	-0.019563036
14	0x3e9853ff	0.29751584
15	0xbc6750a0	-0.014118344
16	0xbcccbbd4	-0.024991907
17	0xbce13765	-0.027492234
18	0x00002403	1.2919e-41
19	0x3e80801f	0.2509775
20	0x3e8a9a9f	0.27071092
21	0xa69a376c	-1.0700919e-15
22	0x3e591974	0.21201116
23	0x3e8a9ff3	0.27075157
24	0x801a0f6c	-2.393255e-39
25	0xbe067978	-0.13132274
26	0xbca233cb	-0.019800087

encoder.b1.bn.bias f4 [27]
0	0x3d8e3dd6	0.06945388
1	0xb9ecc3a1	-0.00045159183
2	0x9776476f	-7.957705e-25
3	0xba4bf0c9	-0.0007779715
4	0x3dacb1f5	0.0843238
5	0xbd0a257b	-0.03372715
6	0x3d51a68d	0.051184226
7	0x3d3d0855	0.046150524
8	0xba4bed92	-0.0007779236
9	0x3df37d63	0.1188915
10	0xba050c21	-0.0005075355
11	0x3d08741d	0.03331386
12	0xbe82e607	-0.25566122
13	0xb9f01629	-0.00045792878
14	0xbebc4e5d	-0.36778536
15	0xbbdd078b	-0.006745284
16	0xbad6a34f	-0.0016375574
17	0xba9bc63a	-0.0011884638
18	0x92d56633	-1.3467384e-27
19	0x3d663a0a	0.056207694
20	0x3d38b590	0.045095026
21	0xa0585079	-1.8322538e-19
22	0xbc6a927b	-0.01431715
23	0x3d037917	0.032097902
24	0xb354c599	-4.953981e-08
25	0x3e80134a	0.25014716
26	0xbb923bc2	-0.00446269

encoder.b1.bn.running_mean f4 [27]
0	0x3d3aa960	0.045571685
1	0x3703b9eb	7.851496e-06
2	0x00000004	6e-45
3	0x00000004	6e-45
4	0x3dbc5e18	0.091976345
5	0x3d0750a2	0.03303588
6	0xbd47b9c2	-0.048761137
7	0x3cdf497e	0.027256723
8	0x3558abaf	8.0716103e-07
9	0x3d0c0e21	0.034193162
10	0x0001be1d	1.60035e-40
11	0xbd76722e	-0.060167484
12	0x3c9988ff	0.018742083
13	0x34a9c400	3.1621312e-07
14	0x3c3feb68	0.01171384
15	0x2f3ae36e	1.6997401e-10
16	0x33b98dd6	8.6405336e-08
17	0x363684e3	2.7197464e-06
18	0x00000004	6e-45
19	0x3da5dff1	0.08099354
20	0x3e30e8af	0.17276262
21	0x00000004	6e-45
22	0x3ca9fe43	0.020751124
23	0x3e2ca0bc	0.1685819
24	0xb8afcafb	-8.382458e-05
25	0xb85d965e	-5.2830546e-05
26	0x372a005a	1.01328715e-05

encoder.b1.bn.running_var f4 [27]
0	0x3a77cc82	0.0009452776
1	0x00000004	6e-45
2	0x00000004	6e-45
3	0x00000004	6e-45
4	0x39070fd0	0.00012880494
5	0x39ef6b8b	0.00045665758
6	0x3787e500	1.619989e-05
7	0x3958ba3b	0.00020668741
8	0x00000004	6e-45
9	0x39bd22e6	0.0003607489
10	0x00000004	6e-45
11	0x37ea92c1	2.7963311e-05
12	0x3a57a365	0.0008225947
13	0x00000004	6e-45
14	0x3a9d6acc	0.0012009977
15	0x00000004	6e-45
16	0x00000009	1.3e-44
17	0x2011ec4f	1.2360166e-19
18	0x00000004	6e-45
19	0x389a0281	7.3437586e-05
20	0x39743f9c	0.0002329335
21	0x00000004	6e-45
22	0x394b95b5	0.00019415359
23	0x3955c4fe	0.00020386648
24	0x37a0821b	1.9134071e-05
25	0x379d1d7a	1.8729585e-05
26	0x379e30b5	1.8857749e-05

encoder.b1.act.weight f4 [27]
0	0x3e5e82d1	0.2172959
1	0xa920dfe2	-3.5721324e-14
2	0x00003f56	2.272e-41
3	0x25f4a005	4.2435686e-16
4	0xbe8b22b5	-0.27174917
5	0xbdf0f676	-0.11765759
6	0x3cc00c99	0.023443507
7	0x3e57b6b2	0.21065786
8	0xa31acf31	-8.392231e-18
9	0x3d8e0129	0.06933815
10	0x000010cf	6.03e-42
11	0xbec98cda	-0.39365274
12	0x3e80e062	0.2517119
13	0x340c5072	1.3067782e-07
14	0x3ea25979	0.31708887
15	0xb95e94b5	-0.00021226968
16	0xb75456bb	-1.2656378e-05
17	0xb75624b0	-1.2763936e-05
18	0x000015c7	7.812e-42
19	0xbe9c4dff	-0.30528256
20	0xbf2d912d	-0.67799646
21	0x00006aa3	3.8254e-41
22	0x3d848ffb	0.064727746
23	0xbf3a9156	-0.72878015
24	0x8000191b	-9.006e-42
25	0x0000695a	3.7793e-41
26	0xb914ada5	-0.00014179068

encoder.level2_0.c1.conv.weight f4 [16, 27, 3, 3]
0	0xbcbd2572	-0.023089144
1	0xbd5c40a6	-0.05377259
2	0xbd97fbca	-0.07421072
3	0xbc987fa8	-0.018615559
4	0xbd95118a	-0.07278736
5	0xbd9805b9	-0.074229665
6	0xbd56a7cf	-0.05240613
7	0xbe04712d	-0.12933798
8	0xbdbff45d	-0.093727805
9	0x23a86a1d	1.8259537e-17
10	0xa9128fa2	-3.2543094e-14
11	0xa9128f9f	-3.2543084e-14
12	0xa6a1901c	-1.121068e-15
13	0x28655049	1.2729463e-14
14	0x2865504e	1.2729467e-14
15	0xa6a1e020	-1.1232368e-15
16	0x286556ee	1.27309035e-14
17	0x2865555c	1.2730563e-14
18	0x000035dc	1.9321e-41
19	0x800043f6	-2.438e-41
20	0x80003d83	-2.2066e-41
21	0x8000177e	-8.427e-42
22	0x00001038	5.818e-42
23	0x00001038	5.818e-42
24	0x00002ac0	1.5336e-41
25	0x000025f7	1.3619e-41
26	0x000025f7	1.3619e-41
27	0xa409c4d6	-2.9873866e-17
28	0x227fe235	3.4678697e-18
29	0x22779daf	3.355822e-18
30	0x2392caee	1.5915296e-17
31	0xa49e1f98	-6.85751e-17
32	0xa49efcc4	-6.894978e-17
33	0x239505c6	1.6157058e-17
34	0xa49c86b0	-6.7882385e-17
35	0xa49e9a55	-6.8783026e-17
36	0x3c2d6d7a	0.010585183
37	0x3c19caa3	0.009386691
38	0x3bf85edc	0.0075796675
39	0x38f8b090	0.00011858449
40	0x3c2199a7	0.009863294
41	0x3ca7c15c	0.020477943
42	0x3c4065a7	0.011742986
43	0x3ce49a8b	0.027905723
44	0x3d2a162c	0.04152505
45	0x3b78d337	0.003796769
46	0x3c29587b	0.010336037
47	0x3cf82ac7	0.030293835
48	0xbcb426e1	-0.021991195
49	0xbc158162	-0.009125086
50	0x3c681d71	0.014167176
51	0xbd2cf06b	-0.042221468
52	0xbc3b50f7	-0.011432878
53	0x3bf9547a	0.0076089473
54	0x3cdf62db	0.027268818
55	0x3cd89f86	0.026443254
56	0x3d02372e	0.031790905
57	0x3c326909	0.0108893
58	0x3c75008a	0.014953742
59	0xbce43a35	-0.027859787
60	0x3d3827c6	0.044959806
61	0xbcf09b28	-0.02937086
62	0xbc252af0	-0.010081038
63	0x3c95f7d4	0.01830665
64	0xbc190e6c	-0.009341817
65	0x3c08263f	0.0083099
66	0x3c41481a	0.0117969755
67	0xbc759a8c	-0.01499046
68	0x3ce03694	0.027369775
69	0xb9f87082	-0.0004738607
70	0xbd1517aa	-0.03639952
71	0x3d156ab0	0.0364787
72	0xa1ff11ab	-1.7284149e-18
73	0xa204c706	-1.7994698e-18
74	0xa204c68f	-1.7994452e-18
75	0x9e71bfb0	-1.2798074e-20
76	0x220d9a0f	1.9190621e-18
77	0x220d99f6	1.919057e-18
78	0x9e6af71c	-1.2438958e-20
79	0x220da899	1.9198318e-18
80	0x220da053	1.9193938e-18
81	0x3c55e547	0.013055152
82	0xbcb7f615	-0.022456208
83	0x3a53ae10	0.00080749486
84	0x3ba5e188	0.005062286
85	0xbcc7ed45	-0.024405131
86	0xbadacbdf	-0.0016692838
87	0xbca13e26	-0.019682955
88	0xbcf87553	-0.030329382
89	0xbd411105	-0.04713537
90	0x000030d2	1.7513e-41
91	0x800027d8	-1.4293e-41
92	0x80001f38	-1.1199e-41
93	0x80003512	-1.9038e-41
94	0x0000071b	2.549e-42
95	0x800007f6	-2.856e-42
96	0x8000297e	-1.4885e-41
97	0x800013bd	-7.081e-42
98	0x80000ba3	-4.174e-42
99	0xbcc1c6ef	-0.02365443
100	0x3d9b541e	0.075844035
101	0x3d704ec6	0.058668874
102	0xba667006	-0.00087904965
103	0x3da4f189	0.08053882
104	0x3d9dcdbd	0.07705257
105	0xbd37c800	-0.04486847
106	0x3d9ffc0f	0.07811748
107	0x3d9908f2	0.07472409
108	0x3bfd17ca	0.007723783
109	0x3bed7c51	0.0072474857
110	0x3c41b251	0.011822299
111	0xbbc28c12	-0.005937108
112	0x3c16f454	0.009213526
113	0xbc1ce3af	-0.009575768
114	0xbbd71927	-0.0065642777
115	0xba888ad3	-0.0010417349
116	0xbbe8be33	-0.0071027516
117	0x3293f484	1.7224245e-08
118	0x32585117	1.25912925e-08
119	0x32585113	1.2591289e-08
120	0x32ab1fb2	1.9921433e-08
121	0x32ab4c7b	1.99418e-08
122	0x32ab4c7d	1.9941803e-08
123	0x32ab1fb6	1.992144e-08
124	0x32ab4c86	1.9941819e-08
125	0x32ab4c85	1.9941817e-08
126	0x3d694d37	0.056958403
127	0x3d34c713	0.044135164
128	0x3cf08e1b	0.029364636
129	0x3c954f4f	0.018226294
130	0x3d2c38bd	0.042046297
131	0x3cc55959	0.024090456
132	0x3df6dd5c	0.1205394
133	0x3e41257a	0.18861952
134	0x3e06ce67	0.13164674
135	0xb8d4de0c	-0.00010150307
136	0xb8db5b6b	-0.00010459762
137	0xb8db5b6b	-0.00010459762
138	0xb933855e	-0.00017120453
139	0xb931eb41	-0.00016967674
140	0xb931eb41	-0.00016967674
141	0xb9338560	-0.00017120456
142	0xb931eb41	-0.00016967674
143	0xb931eb41	-0.00016967674
144	0x34850f01	2.4784097e-07
145	0x3486ac2b	2.5084714e-07
146	0x3486ac3c	2.5084762e-07
147	0xb3298f46	-3.9478685e-08
148	0xb364e193	-5.3290545e-08
149	0xb364e1a4	-5.3290606e-08
150	0xb3298f15	-3.947851e-08
151	0xb364e151	-5.329031e-08
152	0xb364e12f	-5.329019e-08
153	0x36807011	3.8277435e-06
154	0x368ed945	4.2572233e-06
155	0x368ecf63	4.2560728e-06
156	0xb626d65e	-2.4860706e-06
157	0xb637ee19	-2.7407716e-06
158	0xb63a8992	-2.7796236e-06
159	0xb62353bb	-2.433763e-06
160	0xb63a19ff	-2.7731292e-06
161	0xb635cb6c	-2.708951e-06
162	0x0000062b	2.213e-42
163	0x800045ad	-2.4995e-41
164	0x000017b0	8.497e-42
165	0x800042be	-2.3943e-41
166	0x80006501	-3.6233e-41
167	0x00005e38	3.38e-41
168	0x00003cc4	2.1799e-41
169	0x800017ec	-8.582e-42
170	0x80005128	-2.9113e-41
171	0x3c7302ca	0.014832208
172	0x3c84388c	0.016140245
173	0x3b2fea6e	0.0026842612
174	0xbbacd065	-0.005273866
175	0xbcff8792	-0.031192575
176	0xbc080f78	-0.008304469
177	0x3d069259	0.03285441
178	0x3c9cbfc8	0.019134417
179	0x3d000532	0.031254955
180	0xbd13dd76	-0.036099873
181	0x3b939131	0.004503392
182	0x3c3384ec	0.010956984
183	0x3c5c8998	0.013460539
184	0xbc95b0a2	-0.018272702
185	0x3c99d291	0.018777164
186	0x3b8c9316	0.004289995
187	0xbca05de7	-0.019576026
188	0x3c31b916	0.010847351
189	0x00004fdb	2.8647e-41
190	0x00005353	2.9891e-41
191	0x800061f4	-3.5139e-41
192	0x800068bd	-3.7573e-41
193	0x8000444e	-2.4503e-41
194	0x00001805	8.617e-42
195	0x80004397	-2.4247e-41
196	0x80004aad	-2.6789e-41
197	0x00000b0c	3.963e-42
198	0x3baed0cb	0.0053349487
199	0x3c2e34bb	0.010632689
200	0xbc838815	-0.0160561
201	0x3c002975	0.007822384
202	0x3ca863d1	0.020555409
203	0xbbd9b24f	-0.0066435705
204	0x3c29d4bc	0.010365661
205	0x3ccdbddb	0.025114944
206	0x3d23e5b1	0.040013973
207	0x3c8bf954	0.017086662
208	0x3baa8f5b	0.0052050776
209	0xbc4e97f3	-0.01260947
210	0xbbed57ca	-0.0072431313
211	0x3ce827b4	0.028339244
212	0x3a3cfce8	0.0007209317
213	0x3ca2ffa2	0.019897286
214	0x3d512a9e	0.051066034
215	0x3d00dc9d	0.031460393
216	0x80004179	-2.3487e-41
217	0x800036c2	-1.9643e-41
218	0x00003ba0	2.139e-41
219	0x8000017f	-5.37e-43
220	0x00002760	1.4125e-41
221	0x80002c3e	-1.5871e-41
222	0x80005062	-2.8836e-41
223	0x80003717	-1.9763e-41
224	0x00004e98	2.8194e-41
225	0x3d5a99e0	0.053369403
226	0x3d09c3e2	0.033634074
227	0x3d0a7213	0.033800196
228	0xbd6e4bb0	-0.05817765
229	0xbd440674	-0.047857717
230	0xbd4f2f36	-0.050582133
231	0xbd772ca0	-0.060345292
232	0xbd2f0d32	-0.042737193
233	0xbd559ba5	-0.052150387
234	0xb7d678f3	-2.556711e-05
235	0xb803ad0c	-3.1393996e-05
236	0x378e628a	1.6973605e-05
237	0x394c700a	0.00019496694
238	0x3921cb2a	0.00015429841
239	0x3909ef1a	0.0001315441
240	0x3a039505	0.0005019459
241	0x39b88367	0.00035193117
242	0x39904996	0.00027520646
243	0x3b39ec46	0.002836959
244	0xbc9d157b	-0.019175282
245	0xbcd5b47d	-0.02608704
246	0x3a744eb9	0.0009319592
247	0xbcd92d7e	-0.02651095
248	0xbcf73a16	-0.030179065
249	0x3c81cadb	0.0158438
250	0xbc3f3cf9	-0.011672252
251	0xbc89e910	-0.016834766
252	0xa812f084	-8.156782e-15
253	0xa720dbee	-2.2323685e-15
254	0xa720dc0b	-2.2323746e-15
255	0x259c50e8	2.711651e-16

encoder.level2_0.d1.conv.0.weight f4 [16, 1, 3, 3]
0	0xbb7a6e3a	-0.0038212673
1	0x39bf2d28	0.00036464003
2	0xbba847a5	-0.005135494
3	0x3b74edcf	0.003737319
4	0x3c373002	0.01118088
5	0x3b4632dc	0.0030242717
6	0xbacad028	-0.0015473412
7	0x39ebfa66	0.00045009254
8	0xbbf87f5f	-0.007583543
9	0xbd0ae4e4	-0.033909693
10	0xbc1dc114	-0.009628553
11	0xbd35eaab	-0.04441325
12	0x3d5a43ad	0.053287197
13	0x3e091a77	0.13389002
14	0x3df0d680	0.11759663
15	0xbcacf451	-0.021112593
16	0x3d2b69c1	0.0418489
17	0x3cbfde49	0.023421424
18	0x3cda41e5	0.02664275
19	0x3d17db68	0.037074476
20	0x3d222f25	0.03959574
21	0x3c2615da	0.010137046
22	0x3d3464de	0.044041507
23	0x3e14cb57	0.14530693
24	0xbcbb927a	-0.022896994
25	0x3c14042f	0.009034201
26	0x3db72131	0.08941878
27	0x3d0c1ec8	0.034209043
28	0x3d091ae6	0.033472918
29	0x3d02dcb4	0.03194876
30	0xbc50d3de	-0.012745826
31	0xbda149aa	-0.078753784
32	0xbdeeffcb	-0.116698824
33	0x3d4d853a	0.050175883
34	0x3dbd2f79	0.0923757
35	0x3d9c7903	0.07640269
36	0x3d470575	0.04858919
37	0xbda94cb3	-0.08266582
38	0xbbfa33d2	-0.007635572
39	0xbb8ca6f1	-0.004292362
40	0xbe4a1c79	-0.19737424
41	0xbde18dfa	-0.11013408
42	0x3d3aced5	0.045607407
43	0xbde1d39b	-0.11026689
44	0xbd193075	-0.037399728
45	0xbd81f5f5	-0.06345741
46	0xbc9a9124	-0.018868037
47	0x3cb0d564	0.021586128
48	0xbd2e3473	-0.04253049
49	0x3d09a385	0.03360321
50	0x3d8151c2	0.06314422
51	0xbd389a63	-0.04506911
52	0x3cb3d89e	0.021953877
53	0x3d12bb6b	0.035823267
54	0xbc14c027	-0.009079016
55	0xbdb29e34	-0.08721581
56	0xbce52493	-0.027971542
57	0x3c2e072f	0.01062183
58	0xbdf81567	-0.12113457
59	0xbdca0ce0	-0.09865737
60	0x3d791f8a	0.060821094
61	0xbda8d65e	-0.08244012
62	0xbd3b76af	-0.045767482
63	0xbc890da3	-0.016730135
64	0xbdd77c2e	-0.10521732
65	0xbd249eeb	-0.04019062
66	0xbaefb5ac	-0.0018288395
67	0xbe024e8d	-0.12725277
68	0x3cbb46a5	0.022860834
69	0xbb6d55aa	-0.003621439
70	0xbdcb3e2c	-0.09923968
71	0xbd5d31eb	-0.054002684
72	0xbb8478c4	-0.0040427167
73	0xbc4fdfd7	-0.012687645
74	0xbad93403	-0.0016571287
75	0x3ac05473	0.0014673605
76	0xbbe4d32e	-0.0069831824
77	0x3bc9300e	0.006139762
78	0x3a164253	0.0005731929
79	0xbba490e5	-0.0050221556
80	0x3c26fa73	0.010191548
81	0xbce5037d	-0.027955765
82	0x3a21bdce	0.00061699457
83	0xbc0584a0	-0.008149296
84	0xbd9a6b87	-0.075400405
85	0xbde13188	-0.109957755
86	0xbe0a95b0	-0.13533664
87	0xbd6d702c	-0.057968304
88	0xbd7a017a	-0.061036564
89	0xbe025a28	-0.12729704
90	0xbd765a6e	-0.060144834
91	0x3c9ca0ce	0.019119646
92	0x3e22d996	0.15903315
93	0xbde4c7ae	-0.111708984
94	0xbcf213d8	-0.029550478
95	0x3e7fbb96	0.24973902
96	0xbd1b14c9	-0.03786162
97	0x3b938b2a	0.0045026736
98	0x3e1b6e4a	0.1517879
99	0xbd61c1a7	-0.055116322
100	0xbcae9a10	-0.021313697
101	0x3da76e39	0.0817532
102	0xbd138321	-0.036013726
103	0x3dfbea62	0.12300564
104	0x3ed27494	0.41104567
105	0xbc84c88d	-0.016208911
106	0xba2b0301	-0.000652358
107	0x3d1fca1a	0.0390111
108	0xbcac5ede	-0.02104133
109	0x3d6581c5	0.05603196
110	0xbcc52c8c	-0.024069093
111	0xbc054bc3	-0.008135739
112	0x3d80b391	0.062842496
113	0xbe2a8b01	-0.16654588
114	0xbc75f8da	-0.015012944
115	0x3d91d0a6	0.07119875
116	0xbdd9b3dd	-0.10630009
117	0xbb80dc0d	-0.003932482
118	0xbbe64e33	-0.007028365
119	0xbb8a72bb	-0.0042251027
120	0x3a245182	0.0006268249
121	0xbc00e932	-0.007868098
122	0xbb113cb2	-0.0022161421
123	0xbb79bff0	-0.0038108788
124	0xbbd5f19c	-0.006529046
125	0xbb2328cc	-0.0024896143
126	0xbd88e4f5	-0.06684295
127	0xbdb6c150	-0.0892359
128	0x3dc846c6	0.09779124
129	0xbe5c62a5	-0.21522005
130	0xbe135715	-0.14388688
131	0x3e68d351	0.22736861
132	0xbd54bd6e	-0.051938467
133	0xbe00bc51	-0.12571837
134	0x3dfbad1b	0.122888766
135	0x3c0de19d	0.008659747
136	0x3dfd678a	0.12373264
137	0x3e20b865	0.15695341
138	0xbc615452	-0.013753014
139	0xbd209bf8	-0.039211243
140	0x3be7bae2	0.0070718387
141	0xbb8a1936	-0.004214431
142	0xbdce8e1c	-0.10085699
143	0xbdaf9034	-0.085724264

encoder.level2_0.d1.conv.1.weight f4 [16, 16, 1, 1]
0	0xb0f4689a	-1.7783066e-09
1	0x33b295af	8.315998e-08
2	0x33e53df0	1.067491e-07
3	0x306341b5	8.2675494e-10
4	0x33ce9181	9.6190895e-08
5	0xb2af079e	-2.0376145e-08
6	0x33b7e33e	8.562937e-08
7	0x336be1d3	5.4920587e-08
8	0xb190c830	-4.2137103e-09
9	0x31e539fa	6.6713683e-09
10	0x3257dd58	1.2564975e-08
11	0x32de2b90	2.5864011e-08
12	0x329ebc80	1.847934e-08
13	0xb3671622	-5.380401e-08
14	0xb3a74f44	-7.790962e-08
15	0xb0911efa	-1.0558943e-09
16	0x3b1f6f56	0.0024327836
17	0xbcdc01e9	-0.02685638
18	0x3c584d69	0.01320205
19	0x3d82fef1	0.063962825
20	0xbc8006c2	-0.015628222
21	0x3a47e0ba	0.00076247344
22	0xbc906826	-0.017627787
23	0xbe2d1150	-0.16901135
24	0x3b8dfbda	0.0043330016
25	0x3d0d3e1c	0.03448306
26	0xbe3dcaae	-0.18534347
27	0x3b944332	0.004524612
28	0x3c8eda73	0.01743815
29	0x3c627d42	0.013823809
30	0xbe50d061	-0.2039199
31	0xbcf3e716	-0.029773276
32	0xb8da8c26	-0.00010421155
33	0x3e3fab01	0.18717577
34	0x3e21544a	0.1575481
35	0xbd165507	-0.036702182
36	0x3d295c02	0.04134751
37	0x3d869cb0	0.065728545
38	0xbe241432	-0.16023329
39	0x3d5c36e8	0.0537633
40	0x3bbed275	0.0058234283
41	0x3c85f1df	0.016350685
42	0xbcfe1afb	-0.031018725
43	0xbc67b303	-0.014141801
44	0xbaee535b	-0.0018182801
45	0x3ab7cc68	0.001402271
46	0x3b2eb309	0.0026657006
47	0xbda166a7	-0.078809075
48	0xb5f4d68e	-1.824186e-06
49	0xb9387bba	-0.00017593699
50	0x3a015098	0.0004932969
51	0xb7f2dc8a	-2.8951345e-05
52	0x3a68762e	0.0008867708
53	0x37a985c2	2.0208656e-05
54	0x388db810	6.757688e-05
55	0xb92abfcd	-0.00016283915
56	0x35b758be	1.366039e-06
57	0x37ecb64b	2.821828e-05
58	0x39c39b6d	0.000373091
59	0x36edd62e	7.088084e-06
60	0xb8038fda	-3.1366806e-05
61	0x3870497b	5.7288893e-05
62	0x39d77585	0.00041095554
63	0xb7084802	-8.122997e-06
64	0xbb6d1662	-0.0036176671
65	0xbd70a011	-0.0587464
66	0x3e3b22c7	0.18274985
67	0x3c6c86d7	0.014436445
68	0x3de6ab88	0.11263186
69	0xbd346ece	-0.044050984
70	0xbda8a5c8	-0.08234745
71	0xbc28bdc2	-0.010299148
72	0xbb73d8a7	-0.0037207992
73	0x3bbb1de8	0.005710352
74	0x3c75079c	0.0149554275
75	0xbda6531e	-0.08121322
76	0xbcf97c32	-0.030454729
77	0xbc038098	-0.008026265
78	0xbe2b68e8	-0.16739237
79	0xbdca1d64	-0.09868887
80	0x3b893106	0.0041867523
81	0x3cd3ef97	0.025871081
82	0x3ca26494	0.01982335
83	0xbc29c54d	-0.010361982
84	0x3c8d6a42	0.017262582
85	0xbc1531ce	-0.009106113
86	0xbe1efb43	-0.15525536
87	0xbcd14819	-0.025547074
88	0xbb96fbed	-0.0046076686
89	0xbda8a90a	-0.08235367
90	0x3dd9a25b	0.1062667
91	0x3df6b5db	0.12046405
92	0x3d18b5d8	0.037282795
93	0xbc0393dc	-0.008030858
94	0x3d1d9a0c	0.03847699
95	0x3e1355ce	0.143882
96	0xbb813dfe	-0.0039441576
97	0x3cb37e91	0.021910938
98	0xbc34b585	-0.011029606
99	0xbd1a6af7	-0.037699666
100	0x3da78806	0.08180241
101	0x3cad0558	0.021120712
102	0x3b08addf	0.0020855588
103	0xbe085936	-0.13315281
104	0x3a5fee60	0.00085422955
105	0xbe27de6f	-0.16393445
106	0x3dd0800a	0.101806715
107	0xbe9605d9	-0.29301336
108	0xbc264953	-0.010149318
109	0x3bb46e23	0.0055062934
110	0xbe23419e	-0.15943
111	0x3c581dba	0.013190681
112	0xbb6d4438	-0.0036203992
113	0xbcfb9cbe	-0.030714389
114	0xbc6b54dd	-0.014363495
115	0xbe2f26e4	-0.1710468
116	0x3c8639d4	0.016384996
117	0x3b394136	0.0028267629
118	0xbd754df1	-0.059888784
119	0x3c9f0279	0.019410359
120	0x3c012f38	0.007884793
121	0x3dcdd00c	0.100494474
122	0x3d0e1698	0.034689516
123	0xbe25a07b	-0.161745
124	0xbe45adaa	-0.19304529
125	0x3bc59290	0.0060294345
126	0x3d01c7e6	0.03168478
127	0xbe065ef5	-0.1312216
128	0xbb84e543	-0.0040556504
129	0xbdcf1d10	-0.10112965
130	0xbe020e67	-0.12700807
131	0x3c277c2b	0.010222475
132	0x3e194271	0.14966752
133	0xbd8be0e9	-0.068300076
134	0x3d621e65	0.055204768
135	0xbc8d3234	-0.017235853
136	0x3b925c8f	0.0044666003
137	0xbd8f4e48	-0.06997353
138	0xbc4b70d2	-0.012417035
139	0x3cf247a6	0.02957518
140	0x3b0665f0	0.0020507537
141	0xbc43b3e6	-0.011944747
142	0xbd653156	-0.055955254
143	0x3d85296d	0.06502042
144	0xbaa48fb7	-0.0012555037
145	0xbcc3ba23	-0.023892468
146	0x3d805917	0.062669925
147	0x3c9b91a7	0.01899035
148	0x3bdc2562	0.0067183236
149	0x3ca2f853	0.0198938
150	0x3bf48d37	0.007463123
151	0xbdb0b740	-0.08628702
152	0x3bbc54de	0.0057474216
153	0x3e07fb1f	0.13279389
154	0xbdc3b987	-0.09556871
155	0x3e8728d9	0.26398352
156	0x3d1b3d81	0.03790045
157	0xbb908093	-0.0044098585
158	0x3e5a1a08	0.21298993
159	0x3cb0db4d	0.021588946
160	0xbb38b646	-0.0028184815
161	0x3d7c9d1e	0.061673276
162	0xbd1f85be	-0.038945906
163	0xbaea02ba	-0.0017853596
164	0x3e824eb6	0.25450677
165	0xbc3d9fa7	-0.011573709
166	0xbd67ba3b	-0.056574088
167	0x3d8c1a9d	0.068410136
168	0xb97ef978	-0.00024316262
169	0x3ccd996a	0.025097568
170	0xbd40076a	-0.04688207
171	0xbc067b5f	-0.008208125
172	0xbd981611	-0.07426084
173	0x3c06c7a8	0.008226313
174	0xbced4bc5	-0.028966794
175	0xbd69afa3	-0.057052266
176	0x3ad662dc	0.0016356367
177	0xbc388a6a	-0.011263469
178	0xbc638dd4	-0.013888795
179	0xbcb78b1a	-0.022405196
180	0xbd80ed62	-0.06295277
181	0x3a83136d	0.0010000296
182	0x3e2ce0fb	0.16882698
183	0x3d8ff586	0.07029252
184	0xba992352	-0.00116835
185	0x3cc6b43a	0.02425586
186	0x3e7f5e6c	0.24938363
187	0x3d91d9de	0.07121633
188	0xbc93ef30	-0.01805839
189	0x3b6870d8	0.003546765
190	0x3db53f59	0.08849973
191	0xbd70f067	-0.058823016
192	0x3ba17c6f	0.0049281637
193	0x3d5411a4	0.051774636
194	0xbe04299c	-0.12906498
195	0x3bc17bda	0.005904657
196	0xbe0702f2	-0.13184717
197	0xbd50fd6f	-0.051022943
198	0xbc214519	-0.009843134
199	0x3e1d1f50	0.15343976
200	0x3ba183d4	0.004929045
201	0xbc93e91f	-0.018055497
202	0x3d771586	0.06032326
203	0x3da3b59e	0.07993625
204	0x3d9ff751	0.07810844
205	0x3a9a884d	0.0011789888
206	0x3ce90663	0.028445428
207	0x3d58a8af	0.052895244
208	0xbb26d675	-0.0025457416
209	0x3ac9f9d7	0.0015409541
210	0xbc0ba1df	-0.00852248
211	0x3c2a7844	0.01040465
212	0xbbe24473	-0.0069051324
213	0xbb0288e4	-0.001991802
214	0xbb9ba3f6	-0.0047497703
215	0xb9fc41bc	-0.00048114161
216	0x3a699846	0.0008910935
217	0xbadb4a30	-0.0016730484
218	0xbbd74d15	-0.006570468
219	0x3bfb3c8b	0.0076671294
220	0x3b370a21	0.0027929621
221	0x38bb71eb	8.938074e-05
222	0x3a1c6292	0.0005965616
223	0xbbc48459	-0.0059972224
224	0xbc6ed77f	-0.014577745
225	0x3e003b88	0.1252271
226	0x3e2a3bf8	0.16624439
227	0x3ce0c0ab	0.027435621
228	0xbda4bc85	-0.0804377
229	0x3cebd330	0.028787225
230	0xbd2a656d	-0.041600633
231	0xbc283e40	-0.010268748
232	0xbbc2f1c9	-0.005949233
233	0xbd4444a3	-0.04791702
234	0x3dfac6b3	0.1224493
235	0x3cb8a00b	0.022537252
236	0x3c8dcbd5	0.017309109
237	0xbc98a98b	-0.018635532
238	0x3d0baaa6	0.03409829
239	0x3bdc5c96	0.0067249043
240	0x3a13ba0b	0.00056353275
241	0xb943bf99	-0.00018668025
242	0x3b47ec2f	0.0030505767
243	0x3abe3e04	0.0014514332
244	0x3b77c02e	0.0037803757
245	0x3b9f7d49	0.00486723
246	0xb684d13e	-3.9582656e-06
247	0x38b59f5f	8.660438e-05
248	0xb9efb1cc	-0.000457181
249	0x3baacd33	0.00521245
250	0xbb8fdf1a	-0.0043906095
251	0x3c011eb8	0.007880859
252	0xb9cd3f51	-0.0003914782
253	0xba22869a	-0.0006199867
254	0x390aef05	0.00013249747
255	0x373cd79e	1.12558755e-05

encoder.level2_0.d2.conv.0.weight f4 [16, 1, 3, 1]
0	0xbe688f63	-0.22710948
1	0x3e57ee53	0.21087007
2	0x3cb7aa2a	0.022420008
3	0xbcc21c0a	-0.02369501
4	0x3deff814	0.11717239
5	0xbb6803b2	-0.0035402593
6	0xbd3c33b6	-0.045947753
7	0x3e2798f2	0.16366938
8	0xbce75342	-0.028237943
9	0x3c4f1309	0.012638816
10	0xbe1b44d0	-0.15162969
11	0x3bd2eab9	0.0064366725
12	0x00009b7c	5.5777e-41
13	0x00005e62	3.3858e-41
14	0x80006f75	-3.9983e-41
15	0x3e6cd5ad	0.23128386
16	0xbd02d116	-0.03193768
17	0xbe52dbf4	-0.20591718
18	0xbe3c0aa0	-0.18363428
19	0xbd3300dc	-0.04370199
20	0x3e6a6d8c	0.22893351
21	0xbcf15adf	-0.029462276
22	0x3db3fec1	0.08788825
23	0x3d5196ba	0.051169135
24	0x80008c69	-5.037e-41
25	0x80001822	-8.657e-42
26	0x0000ecf9	8.501e-41
27	0xbc4426e1	-0.01197216
28	0xbdebafa5	-0.11508111
29	0xbd38118b	-0.044938605
30	0x8000c751	-7.1501e-41
31	0x0000eba4	8.4532e-41
32	0x000003e4	1.396e-42
33	0x3d269903	0.040673267
34	0xbe7021fd	-0.23450466
35	0x3d421e3b	0.04739211
36	0x3d228ec0	0.03968692
37	0xbe4dfe5b	-0.2011656
38	0x3e2c7a1c	0.16843456
39	0xbd3d8130	-0.04626578
40	0xbe45a159	-0.1929983
41	0x3e77826d	0.24170847
42	0xbe5df35a	-0.21674863
43	0x3e5b7083	0.21429639
44	0xbbce78d5	-0.0063010254
45	0x3c824e5b	0.015906503
46	0x3e49ab2d	0.19694205
47	0xbe6c548a	-0.23079124

encoder.level2_0.d2.conv.1.weight f4 [16]
0	0x3dfdee07	0.12398916
1	0x3dd8b95c	0.105822295
2	0x3dcfb613	0.1014215
3	0x3da0d4a9	0.07853062
4	0x000040b5	2.3213e-41
5	0x3e01a0c0	0.12658978
6	0x3e0dce54	0.13848239
7	0x3d589576	0.052876912
8	0x0000e37b	8.1605e-41
9	0x3da8e6c9	0.08247144
10	0x00003678	1.954e-41
11	0x3dd10ac7	0.10207134
12	0x3e088bac	0.1333453
13	0x3df10c55	0.1176993
14	0x3ded9ffb	0.116027795
15	0x3e43f010	0.19134545

encoder.level2_0.d2.conv.1.bias f4 [16]
0	0xbb900fac	-0.0043963995
1	0x3d9cc340	0.076544285
2	0x3de6fa1c	0.11278173
3	0x3e062c27	0.1310278
4	0x00000446	1.533e-42
5	0xbc23ef04	-0.010005716
6	0xbb74ab48	-0.0037333537
7	0x3e0eef5f	0.139585
8	0x00001b43	9.78e-42
9	0x3e0d48bb	0.13797276
10	0x0000b759	6.5773e-41
11	0x3e0b6914	0.13614303
12	0x3e030503	0.1279488
13	0x3dc82d70	0.097742915
14	0x3ba122d2	0.004917481
15	0xbb0aa3a1	-0.002115466

encoder.level2_0.d2.conv.1.running_mean f4 [16]
0	0xbaacfe87	-0.0013198414
1	0xbb99f06a	-0.004697849
2	0xbc72fa8c	-0.014830243
3	0x3b383e75	0.00281134
4	0x00000004	6e-45
5	0x39b90026	0.0003528606
6	0x38d4dcec	0.00010150098
7	0xbbbcf406	-0.0057663945
8	0x3312fad7	3.422141e-08
9	0xbaba2404	-0.0014201407
10	0x3246a6b7	1.1563023e-08
11	0xbaf08996	-0.0018351551
12	0xb8116396	-3.466344e-05
13	0xb90d761f	-0.00013490811
14	0x39f316eb	0.00046365647
15	0xb91b18d4	-0.00014791201

encoder.level2_0.d2.conv.1.running_var f4 [16]
0	0x38eee0cc	0.00011390596
1	0x38b196bd	8.468095e-05
2	0x392b64a2	0.0001634532
3	0x37b657ff	2.1737067e-05
4	0x00000004	6e-45
5	0x38d4dbf5	0.00010149918
6	0x390248e0	0.00012424914
7	0x38ffacaf	0.00012191512
8	0x280c9ac0	7.805117e-15
9	0x383f0e63	4.5551347e-05
10	0x26a2eaa6	1.130461e-15
11	0x39139b35	0.00014076832
12	0x385a75c7	5.208494e-05
13	0x3935dc5b	0.00017343594
14	0x38eb5e96	0.00011223291
15	0x39414556	0.00018431744

encoder.level2_0.d2.conv.2.weight f4 [16]
0	0xbd6679e5	-0.05626859
1	0x3eae7933	0.34076843
2	0x3eebecaf	0.46079013
3	0x3d9188a4	0.0710614
4	0x8000aef7	-6.2766e-41
5	0xbed3c4e5	-0.41361156
6	0xbeea5d1f	-0.4577417
7	0x3c1347e2	0.008989306
8	0x800016be	-8.158e-42
9	0x3d966220	0.073429346
10	0x8000609a	-3.4654e-41
11	0x3da84f90	0.082183
12	0x3dc6a713	0.09699836
13	0x3e8032c5	0.25038734
14	0xbd0041c8	-0.031312734
15	0xbf157d89	-0.58394676

encoder.level2_0.d2.conv.3.weight f4 [16, 1, 1, 3]
0	0xbd559c3c	-0.05215095
1	0x3e2b9906	0.16757593
2	0xbb93a491	-0.004505702
3	0xbb065f56	-0.0020503602
4	0xbe0eaef4	-0.13933927
5	0xbba85495	-0.005137036
6	0x3ccf21a0	0.025284588
7	0xbe401816	-0.18759188
8	0x3baa83e4	0.005203711
9	0xbe01e874	-0.1268633
10	0x3e56dde5	0.20983084
11	0xbd72f7d1	-0.059318367
12	0x80009f90	-5.724e-41
13	0x8000a423	-5.8881e-41
14	0x80003f0e	-2.262e-41
15	0xbd80ecac	-0.062951416
16	0x3e29f8f8	0.1659888
17	0xbc867621	-0.01641375
18	0xbd28df46	-0.041228555
19	0x3e0daa4f	0.13834499
20	0x3cb5f016	0.022209208
21	0x3cc139e4	0.023587175
22	0xbcc9a374	-0.024614073
23	0x3e2acd24	0.16679817
24	0x00000cda	4.61e-42
25	0x0000075f	2.644e-42
26	0x80006d96	-3.9312e-41
27	0x3e36d3f6	0.17854294
28	0xbe2a5bce	-0.16636583
29	0xbc4f64e8	-0.012658335
30	0x0000e92d	8.3648e-41
31	0x8000ac01	-6.1703e-41
32	0x800038c7	-2.0368e-41
33	0xbe792bc8	-0.24333107
34	0x3dad5715	0.08463875
35	0x3dd4e393	0.10394969
36	0xbabd51b5	-0.0014443906
37	0xbe2837e2	-0.16427568
38	0xbc46356a	-0.012097696
39	0xbe7ef257	-0.24897133
40	0x3dd259c0	0.10271025
41	0x3deb0cfe	0.114770874
42	0x3d7acd92	0.061231203
43	0xbe2210e9	-0.15826763
44	0xbc8b403c	-0.016998403
45	0xbc3768d9	-0.011194431
46	0x3def6593	0.116892956
47	0x3dd6e979	0.1049375

encoder.level2_0.d2.conv.4.weight f4 [16]
0	0x3e0c7213	0.13715391
1	0x3e373ccb	0.17894284
2	0x3e53581f	0.20639084
3	0x3e6c0835	0.23050006
4	0x000083dd	4.7304e-41
5	0x3df6bc5b	0.12047645
6	0x3df5f8cf	0.12010347
7	0x3e092332	0.13392332
8	0x0000a013	5.7424e-41
9	0x3e3a9886	0.18222246
10	0x80010261	-9.2689e-41
11	0x3e69a080	0.22815132
12	0x3e79390d	0.2433817
13	0x3e64df9a	0.22350922
14	0x3e1423f5	0.14466842
15	0x3e1e5d67	0.15465318

encoder.level2_0.d2.conv.4.bias f4 [16]
0	0xbdcbd2e2	-0.09952332
1	0x3d994c7d	0.07485292
2	0x3d69916e	0.05702346
3	0xbd863c91	-0.06554521
4	0x8000505f	-2.8832e-41
5	0xbce8320a	-0.028344173
6	0x3ca15607	0.019694341
7	0xbaa8484f	-0.0012838932
8	0x800041b2	-2.3567e-41
9	0xbd45cb7f	-0.048289772
10	0x00003c41	2.1615e-41
11	0xbddcad93	-0.10775294
12	0xbcb359d0	-0.021893412
13	0xbd722e52	-0.059126206
14	0xbc8d6107	-0.01725818
15	0x3dc07122	0.09396578

encoder.level2_0.d2.conv.4.running_mean f4 [16]
0	0x3b78d47d	0.003796845
1	0xbc4b3290	-0.012402192
2	0xbc97ba0a	-0.018521328
3	0x3b629474	0.0034573348
4	0x00000004	6e-45
5	0x3b8c848c	0.0042882618
6	0x3bd79202	0.006578685
7	0x3cbd6f21	0.02312428
8	0x00000004	6e-45
9	0xba10cb48	-0.00055234553
10	0x00000004	6e-45
11	0xbbf910ca	-0.0076008784
12	0xbcc76727	-0.024341179
13	0xbb44f739	-0.0030054583
14	0xbb899a63	-0.0041993125
15	0x3c91f14c	0.017815255

encoder.level2_0.d2.conv.4.running_var f4 [16]
0	0x38b839ae	8.7845474e-05
1	0x390d6006	0.0001348258
2	0x394d2609	0.00019564493
3	0x38f6454d	0.000117431024
4	0x00000004	6e-45
5	0x3892b989	6.996381e-05
6	0x38fb7f6c	0.00011992347
7	0x3858ce41	5.1690502e-05
8	0x00000004	6e-45
9	0x393bcab8	0.00017909228
10	0x00000004	6e-45
11	0x3a13a52d	0.0005632218
12	0x398ce0d4	0.0002687039
13	0x39e16d6b	0.00042996867
14	0x38c2f5f5	9.296454e-05
15	0x3a2b0388	0.00065236585

encoder.level2_0.d2.conv.5.weight f4 [16, 1, 3, 3]
0	0xbcbad9a1	-0.022808852
1	0xbd363a36	-0.044489108
2	0xbc55cd05	-0.013049369
3	0x3c6dd893	0.014516967
4	0x3e85afd4	0.2611071
5	0x3c204494	0.009781975
6	0xbc67e1d4	-0.014152963
7	0xbd56573b	-0.052329283
8	0xbccb9e4a	-0.024855752
9	0xbc39aa3b	-0.01133209
10	0xbda475c4	-0.080302745
11	0x3daee685	0.08540062
12	0xbdb157b3	-0.086593054
13	0xbe85be2d	-0.26121655
14	0x3eab5776	0.33465165
15	0x3ad70489	0.001640455
16	0xbdad243f	-0.08454179
17	0x3dc7aa66	0.09749298
18	0x3cc469ca	0.023976225
19	0xbd76cc8e	-0.060253672
20	0x3d382b71	0.044963304
21	0xbdc098b9	-0.094041295
22	0xbeab2aa8	-0.33430982
23	0x3ecacfff	0.39611813
24	0x3cc64fdc	0.024208002
25	0xbd138b20	-0.03602135
26	0x3cf3a6be	0.029742595
27	0xb996c2be	-0.00028755324
28	0xbc9beed6	-0.019034784
29	0x3c298d30	0.010348603
30	0xbbd7dfbf	-0.006587952
31	0x3ea6b5d4	0.325606
32	0xbd6f5700	-0.05843258
33	0xbc221499	-0.009892606
34	0xbbf57bce	-0.0074915653
35	0x3c56e215	0.013115426
36	0x8000874e	-4.8538e-41
37	0x0000c305	6.996e-41
38	0x8000a575	-5.9355e-41
39	0x00002a7b	1.5239e-41
40	0x0000e59b	8.2367e-41
41	0x000075a8	4.2207e-41
42	0x80008aa1	-4.973e-41
43	0x00000530	1.861e-42
44	0x80003754	-1.9848e-41
45	0x3cb77c93	0.022398269
46	0x3bf3b0a4	0.0074368287
47	0x3c848336	0.016175848
48	0xbc68b966	-0.014204359
49	0xbe831700	-0.25603485
50	0x3ba73148	0.0051023103
51	0x3c814bcf	0.015783219
52	0x3ca14987	0.01968838
53	0x3805d7f0	3.191078e-05
54	0xbab70120	-0.0013962127
55	0x3c8c2f64	0.017112441
56	0xbbe418df	-0.0069609727
57	0x3ca6850c	0.020327114
58	0x3e8268b6	0.25470513
59	0xbc939d4c	-0.018019341
60	0x3c51e712	0.012811439
61	0x3c90eba8	0.017690495
62	0xbb5b943b	-0.00335051
63	0x3dda496a	0.10658534
64	0xbca5a16c	-0.020218574
65	0x3c92ad22	0.017904822
66	0x3e450cb5	0.19243129
67	0x3d87243b	0.06598707
68	0x3d251b3a	0.04030917
69	0x3a9239f1	0.0011156184
70	0xbd6ae9d2	-0.057351895
71	0x3c906ad7	0.01762907
72	0x8000c2d8	-6.9897e-41
73	0x0000aacc	6.127e-41
74	0x0000e414	8.1819e-41
75	0x000004c4	1.71e-42
76	0x0000936b	5.2884e-41
77	0x80004bb5	-2.7159e-41
78	0x00004c87	2.7453e-41
79	0x8000e4ab	-8.203e-41
80	0x8000f45e	-8.7662e-41
81	0x3aea716a	0.0017886583
82	0xbb3f16e4	-0.002915793
83	0x3a8b48d1	0.0010626559
84	0xbaed70e1	-0.0018115306
85	0x3b9606ef	0.0045784633
86	0x3e90856c	0.28226793
87	0xbc89e3d5	-0.016832272
88	0xbd131eeb	-0.035918158
89	0x3dad7cc3	0.08471062
90	0x00005241	2.9507e-41
91	0x00005338	2.9853e-41
92	0x00006500	3.6232e-41
93	0x80002b4a	-1.5529e-41
94	0x8000261b	-1.367e-41
95	0x800077df	-4.3002e-41
96	0x00000e3c	5.106e-42
97	0x00005d03	3.3366e-41
98	0x000038b4	2.0341e-41
99	0x3bc9d81d	0.006159796
100	0x3d013421	0.031543855
101	0x3c098508	0.0083935335
102	0xbcbd0cf1	-0.02307746
103	0xbec4717d	-0.38367835
104	0xbdcd1659	-0.10014028
105	0x3c428e9a	0.011874819
106	0x3cdf0728	0.027225092
107	0x3c74f197	0.014950178
108	0x3b81d45a	0.003962082
109	0xbb36dec0	-0.0027903765
110	0x3c724390	0.014786616
111	0xb9fb3876	-0.00047916517
112	0xbeb9421b	-0.36183247
113	0xbb9fb122	-0.004873411
114	0xbc5f5dfe	-0.013633249
115	0xbb21fbbf	-0.0024716703
116	0x3bc658bb	0.006053058
117	0xbb87baa7	-0.0041421237
118	0xbad64838	-0.0016348427
119	0x3bdfb9c6	0.006827566
120	0xbc0a6cbd	-0.008448777
121	0xbebb69f3	-0.3660427
122	0xbd9ccef0	-0.07656658
123	0x39d8f15f	0.00041378566
124	0x3c8e13ae	0.017343368
125	0x3b71d550	0.0036900826
126	0x3ba17a35	0.0049278983
127	0xbc24ebac	-0.010065954
128	0x3b5319a0	0.0032211319
129	0x3cbee741	0.02330363
130	0x3e604fd6	0.21905455
131	0x3b6dce7b	0.0036286402
132	0xbad2e7eb	-0.0016090845
133	0xbe056f33	-0.130307
134	0xbce75dbb	-0.028242936
135	0xbc6aa52c	-0.014321607
136	0xbe7ab4dc	-0.24483055
137	0x3ba68933	0.0050822734
138	0xbcaa54bf	-0.020792363
139	0xbe8c1e27	-0.27366754
140	0x3b948dd2	0.004533508
141	0xbb98e06e	-0.004665426
142	0xbc5acb4d	-0.013354135
143	0xb7627c03	-1.3499523e-05

encoder.level2_0.d2.conv.6.weight f4 [16, 16, 1, 1]
0	0xbcf55bc0	-0.029950976
1	0x3c34d7d9	0.01103779
2	0xbd360ebe	-0.044447653
3	0x3e8225d5	0.2541949
4	0x000076c8	4.261e-41
5	0x3c643de5	0.013930772
6	0x3a21985c	0.0006164366
7	0x3b65eec4	0.0035084942
8	0x0000a345	5.857e-41
9	0xbced2641	-0.028948905
10	0x8000696e	-3.7821e-41
11	0xbba67e5a	-0.0050809802
12	0xbc253022	-0.010082277
13	0xbc684e8f	-0.014178886
14	0xbc8c11c5	-0.017098317
15	0xbcad6844	-0.021167882
16	0xbc9a1e41	-0.018813254
17	0x3e8b3134	0.27185977
18	0x3d583abb	0.052790385
19	0xbc1d1135	-0.009586622
20	0x8000783a	-4.3129e-41
21	0x3bbbac79	0.0057273475
22	0x3ccbbc34	0.024870016
23	0xbc90455d	-0.0176112
24	0x000061a9	3.5034e-41
25	0x3c4a7d98	0.012359045
26	0x00001cd4	1.0342e-41
27	0xbb79d19a	-0.0038119317
28	0xbc15c4f0	-0.009141192
29	0x3b347dcc	0.00275408
30	0x3c27654b	0.010217021
31	0xbc0b3f95	-0.008499046
32	0x3b1176df	0.0022196097
33	0xbe807164	-0.2508651
34	0x3de74b36	0.11293642
35	0xbc0da2c2	-0.0086447615
36	0x80001c22	-1.0092e-41
37	0xbc4d7153	-0.012539226
38	0x3c81400a	0.015777607
39	0xbc090c5d	-0.008364764
40	0x00002fb5	1.7114e-41
41	0x3c80615c	0.015671425
42	0x0000acfd	6.2057e-41
43	0x395326cb	0.0002013698
44	0xbb58bf89	-0.0033073148
45	0xba7904f4	-0.0009499334
46	0x3bb334e7	0.005468953
47	0x3c35c939	0.0110953385
48	0x3dd1d752	0.10246147
49	0x3cf94562	0.030428592
50	0x3be65a4e	0.007029808
51	0x3b9dec8d	0.004819459
52	0x000047d0	2.5761e-41
53	0xbe81e7be	-0.25372118
54	0x3e4e384d	0.20138665
55	0x3dd801b2	0.10547198
56	0x000103be	9.3178e-41
57	0xbbb909e8	-0.005646933
58	0x80007ce2	-4.48e-41
59	0xbbad55be	-0.0052897623
60	0x3c1b6479	0.009484404
61	0xbbba2896	-0.0056811078
62	0xbddc6574	-0.10761538
63	0x3c031170	0.007999763
64	0x3ce05876	0.027385931
65	0x3ccaa6e0	0.024737775
66	0x3c99dcd7	0.018782062
67	0xbe6ba1a1	-0.23010875
68	0x80003a92	-2.1011e-41
69	0xbc9bf139	-0.019035922
70	0x3b46f70d	0.0030359656
71	0x3e05facd	0.13083954
72	0x80004192	-2.3522e-41
73	0xbca85b02	-0.020551208
74	0x0000f0ce	8.6384e-41
75	0xbcfbb316	-0.030725043
76	0xbdf2b794	-0.11851421
77	0x38cc42ec	9.739943e-05
78	0xba58c030	-0.0008268384
79	0x3d05a734	0.03263016
80	0x3da8f84a	0.082504824
81	0xbbe5cb60	-0.0070127696
82	0x3c9733b4	0.018457271
83	0x3d39513c	0.045243487
84	0x00006db9	3.9361e-41
85	0xbce23b1d	-0.027616078
86	0xbd2fc927	-0.042916443
87	0x3dd9d65c	0.10636589
88	0x8000d46e	-7.6205e-41
89	0x3d039b1e	0.032130353
90	0x800119d3	-1.011e-40
91	0x3e65b6f2	0.2243307
92	0x3d0874e3	0.033314597
93	0x3e4645be	0.19362542
94	0x3d797e33	0.06091137
95	0x3d09daf1	0.033656064
96	0xbddecf4c	-0.108793825
97	0xbcde3845	-0.02712644
98	0xbc8a820b	-0.016907712
99	0x3c1cdef4	0.009574641
100	0x0000e164	8.0855e-41
101	0x3cb1e433	0.02171526
102	0x3bb16121	0.00541319
103	0xbc861a20	-0.01636988
104	0x00007d60	4.4976e-41
105	0xbea94224	-0.33058274
106	0x0000d560	7.6545e-41
107	0xbd9d83d1	-0.076911576
108	0xbc9af799	-0.018916892
109	0x3b148d5d	0.0022667267
110	0x3d8d4a12	0.068988934
111	0xbd5ec3a9	-0.054385815
112	0xbcf05691	-0.029338153
113	0x3c38b820	0.011274368
114	0x3c2c3002	0.010509493
115	0xbd483d85	-0.048886795
116	0x80004965	-2.6329e-41
117	0xbd35ec0a	-0.044414558
118	0x3c570c8f	0.013125553
119	0x3df13349	0.1177736
120	0x8000c885	-7.1933e-41
121	0xbc37644e	-0.011193348
122	0x000053d2	3.0069e-41
123	0xbe73ce5d	-0.2380919
124	0xbc37ddc2	-0.011222305
125	0x3e76c676	0.24099144
126	0x3bd6ce0c	0.0065553244
127	0x3d77f022	0.060531743
128	0xba62ac82	-0.00086469215
129	0x37a15ce1	1.9235946e-05
130	0xbebbbaa5	-0.36665836
131	0x3c2cec08	0.010554321
132	0x00009d1a	5.6357e-41
133	0x3a39dd36	0.0007090153
134	0xbc459360	-0.012059063
135	0xb9e967a4	-0.0004451844
136	0x00009be4	5.5923e-41
137	0xbaf9d4fe	-0.0019060669
138	0x80000940	-3.318e-42
139	0xbb7d7a88	-0.003867777
140	0xbba55db6	-0.0050465716
141	0x3b199426	0.002343425
142	0xbc266126	-0.010154998
143	0x3c054635	0.008134414
144	0xbd7fdae5	-0.062464613
145	0xbc0fd2e5	-0.0087783085
146	0xbc46dc8a	-0.012137542
147	0xbc45030a	-0.01202465
148	0x00003c97	2.1736e-41
149	0xbc2df5cf	-0.010617687
150	0x3c6d5f83	0.014488104
151	0x3e0ce3ae	0.13758728
152	0x0000c72c	7.145e-41
153	0x3ca8d1d6	0.02060787
154	0x8000386e	-2.0243e-41
155	0xbe65699f	-0.22403572
156	0x3cd8ecbb	0.02648007
157	0xbe325cef	-0.17418264
158	0xbcdd6248	-0.027024403
159	0x3d80ac05	0.0628281
160	0x3d6476bf	0.055777308
161	0x3d055f9c	0.032561883
162	0x3d8aa3a2	0.06769492
163	0x3aba2ee3	0.0014204647
164	0x8000c46a	-7.046e-41
165	0x3d7b0ef0	0.061293542
166	0xbe2dd10a	-0.16974273
167	0x3e1d83c2	0.15382293
168	0x0001199f	1.01027e-40
169	0x3ddbfd7c	0.10741708
170	0x00008dd9	5.0885e-41
171	0xbd6e9d62	-0.05825556
172	0xbc317454	-0.010830957
173	0x3b7bd6d3	0.0038427606
174	0xbb04fdfc	-0.0020292988
175	0xbce3f412	-0.027826343
176	0x3d9f9ba1	0.07793356
177	0x3bd87a8e	0.0066064065
178	0x3ce671d5	0.028130451
179	0x3d814bc6	0.06313281
180	0x0000f8bb	8.9228e-41
181	0xbd17b53f	-0.037038084
182	0xbd2017cc	-0.039085194
183	0x3e03b852	0.12863281
184	0x8000d676	-7.6934e-41
185	0x3d13e94b	0.036111157
186	0x80003552	-1.9128e-41
187	0x3e52730c	0.205517
188	0xbd52c39c	-0.05145608
189	0xbe77f772	-0.24215487
190	0x3decc475	0.11560909
191	0x3d7e43ab	0.062076252
192	0x3e41bf94	0.18920738
193	0xbaa303d8	-0.0012437059
194	0xbb4efc89	-0.0031583628
195	0xbc6d389b	-0.014478828
196	0x80007eca	-4.5483e-41
197	0x3c8f687f	0.017505882
198	0x3cf204a8	0.029543236
199	0x3d8f7957	0.070055656
200	0x0000df20	8.0042e-41
201	0xbc3c73ae	-0.01150219
202	0x8000f4a5	-8.7762e-41
203	0xbc7e05b7	-0.015504292
204	0xbb3b7f0d	-0.0028609664
205	0xbb8930f8	-0.0041867457
206	0xbe4d91ec	-0.20075196
207	0x3d9d49da	0.07680102
208	0xbd8561af	-0.06512772
209	0xbad0176b	-0.001587612
210	0x3aa7e3ec	0.0012809015
211	0x3afaff09	0.0019149493
212	0x80005b8e	-3.2844e-41
213	0x3d15b9d8	0.036554188
214	0xbd9279ca	-0.07152136
215	0xbd25e682	-0.040503033
216	0x00005650	3.0963e-41
217	0x3bada09a	0.005298686
218	0x800101a9	-9.2431e-41
219	0xb9a20fec	-0.0003091091
220	0xbaea1850	-0.0017860029
221	0x3b2464de	0.0025084536
222	0x3d45d6eb	0.048300665
223	0x3ed20a87	0.41023657
224	0xbca1d28b	-0.019753715
225	0x3a261933	0.00063361524
226	0xbb4f2df5	-0.0031613086
227	0xbd164f1a	-0.03669653
228	0x000016cb	8.177e-42
229	0xbce1c0bd	-0.027557725
230	0xbd2d16d8	-0.042258114
231	0x3d682987	0.05668023
232	0x8000d471	-7.621e-41
233	0x3b993ef9	0.0046766964
234	0x80007b1a	-4.416e-41
235	0xbc53bc95	-0.012923379
236	0xbe973050	-0.29529047
237	0xbc3c81c0	-0.011505544
238	0xbb37cfcb	-0.0028047438
239	0x3e3dc305	0.18531425
240	0xbcc647fc	-0.024204247
241	0x3b1226c0	0.0022300929
242	0xbb38bca9	-0.0028188622
243	0xbe01499e	-0.12625739
244	0x000057e8	3.1535e-41
245	0x3c69b5d4	0.014264543
246	0xbca737c3	-0.020412331
247	0x3d87559f	0.06608128
248	0x8000402c	-2.302e-41
249	0x3c4e4161	0.01258883
250	0x0000f464	8.7671e-41
251	0xbd02d320	-0.031939626
252	0x3e80f0ad	0.2518362
253	0x3ad71d39	0.0016411907
254	0xba0cc1b6	-0.00053694414
255	0x3de260b4	0.11053601
