result/SINet/SINet.pth (torch_old, 444787 bytes, 335 tensors)

encoder.level1.conv.weight f4 [12, 3, 3, 3]
0	0xbd157b73	-0.036494683
1	0xbd78d78e	-0.060752444
2	0xbd94eb0c	-0.07271394
3	0xbd94ea96	-0.07271306
4	0xbddb8932	-0.10719527
5	0xbdfcb919	-0.12339992
6	0xbd5dcf55	-0.054152805
7	0xbdbc8e6d	-0.09206853
8	0xbdda8c4b	-0.1067129
9	0x3d07ccaf	0.033154186
10	0xba3a4df8	-0.0007106955
11	0xbbfb1d01	-0.0076633696
12	0x3b11cc9a	0.0022247196
13	0xbd570b7c	-0.052501187
14	0xbd776023	-0.060394417
15	0x3c428c48	0.011874266
16	0xbd07bf0b	-0.033141177
17	0xbd35c719	-0.044379327
18	0x3ce2364b	0.02761378
19	0xbb43b4c4	-0.0029862383
20	0xbc89d557	-0.016825361
21	0xba8c0564	-0.0010682759
22	0xbce5e366	-0.028062534
23	0xbd829eaa	-0.06377919
24	0x3c934629	0.01797779
25	0xbcfba7c3	-0.030719643
26	0xbd5192c5	-0.05116536
27	0x3ca8629f	0.020554839
28	0x3ba7f5dc	0.0051257443
29	0xbd4893ba	-0.048969008
30	0xbd772eb3	-0.06034727
31	0xbda8a3db	-0.08234378
32	0xbe3ce440	-0.18446445
33	0xbd7983c7	-0.06091669
34	0xbcbb6a07	-0.022877706
35	0xbdaf05f2	-0.08546056
36	0xbc699568	-0.014256813
37	0xbcb963a5	-0.022630522
38	0xbd2c7399	-0.04210243
39	0xbdc7e48b	-0.09760388
40	0xbe075093	-0.1321433
41	0xbe4ed573	-0.20198612
42	0xbda411a6	-0.08011179
43	0xbd61672c	-0.055030033
44	0xbdd5ffd2	-0.104491845
45	0x3cbceee5	0.023063133
46	0xbba85d38	-0.0051380657
47	0xbd0e7c0b	-0.034786265
48	0xbdabd981	-0.08391095
49	0xbdf1ca06	-0.11806111
50	0xbe571924	-0.21005684
51	0xbd93cbc1	-0.07216597
52	0xbd9b1827	-0.07572966
53	0xbe0befc8	-0.13665688
54	0x3cbee70b	0.02330353
55	0x3cf12d9b	0.029440692
56	0x3cddb59c	0.027064137
57	0x3cde36a2	0.02712566
58	0x3d084818	0.03327188
59	0x3d00e362	0.03146685
60	0x3cdbc057	0.026825113
61	0x3d07db94	0.03316839
62	0x3d00750e	0.031361632
63	0x3d09d462	0.03364981
64	0x3d220255	0.039553005
65	0x3d18aae8	0.037272364
66	0x3d18b61b	0.037283044
67	0x3d32022c	0.043459103
68	0x3d2919e9	0.041284475
69	0x3d16ffa1	0.03686488
70	0x3d305750	0.043052018
71	0x3d27cd63	0.040967356
72	0x3d86d4a0	0.06583524
73	0x3d947580	0.07248974
74	0x3d8f0fa6	0.069854066
75	0x3d902a73	0.070393465
76	0x3d9ef5ed	0.0776175
77	0x3d98e5c6	0.07465701
78	0x3d8e7fa3	0.069579385
79	0x3d9c6dae	0.07638107
80	0x3d983988	0.07432848
81	0x9d20dced	-2.129004e-21
82	0x9d2cb936	-2.2859762e-21
83	0x9d2e5b16	-2.3075799e-21
84	0x9d2e585f	-2.3074395e-21
85	0x9d340497	-2.3825175e-21
86	0x9d359a36	-2.4034876e-21
87	0x9d2ef1e2	-2.3153759e-21
88	0x9d34ad2e	-2.3912333e-21
89	0x9d35d7f6	-2.40668e-21
90	0x9d0f5c38	-1.8973568e-21
91	0x9d300bef	-2.3299576e-21
92	0x9d3193ad	-2.3502102e-21
93	0x9d317510	-2.3486275e-21
94	0x9d4d36c8	-2.7159845e-21
95	0x9d4f42da	-2.7430783e-21
96	0x9d3458e8	-2.3868765e-21
97	0x9d503ae2	-2.7559012e-21
98	0x9d5194a7	-2.7737771e-21
99	0x9d531743	-2.7937644e-21
100	0x9d0afdf9	-1.8395449e-21
101	0x9d08123a	-1.8008873e-21
102	0x9d082840	-1.8020259e-21
103	0x9c610ffb	-7.446691e-22
104	0x9c525674	-6.959491e-22
105	0x9d067dbd	-1.7799758e-21
106	0x9c5920da	-7.1841737e-22
107	0x9c4b9fd6	-6.737365e-22
108	0xbcdca4b9	-0.026934015
109	0xbd99b7d2	-0.07505764
110	0xbcb5129b	-0.022103598
111	0xbcf7ae87	-0.030234588
112	0xbe12d11d	-0.14337583
113	0xbdb7ae1d	-0.08968756
114	0xbcb0ace0	-0.021566808
115	0xbe02aaeb	-0.12760513
116	0xbe0051b2	-0.12531164
117	0xbce5f3c2	-0.028070334
118	0xbdadeca4	-0.08492401
119	0xbcfd4647	-0.0309173
120	0xbd022f67	-0.031783488
121	0xbe1d9fdd	-0.15393014
122	0xbde37562	-0.11106373
123	0xbcce12b8	-0.02515541
124	0xbdf484ef	-0.119394176
125	0xbe026887	-0.12735187
126	0xbc990e64	-0.01868362
127	0xbd8842c9	-0.06653363
128	0xbca075aa	-0.019587357
129	0xbcf7a784	-0.030231245
130	0xbe1b9911	-0.15195109
131	0xbda921a1	-0.08258367
132	0xbcee7140	-0.029106736
133	0xbe03f67e	-0.12886998
134	0xbe022da9	-0.1271273
135	0x3d87f009	0.0663758
136	0x3e201174	0.15631658
137	0x3c9c4234	0.019074537
138	0x3e370687	0.17873584
139	0x3e47c110	0.19507241
140	0x3dae38e4	0.08506945
141	0x3dda3c81	0.106560715
142	0x3de52370	0.111884
143	0x3dbd4b08	0.09242827
144	0x3d65ebbf	0.056133028
145	0x3db8ea5d	0.09029076
146	0x3dc9bf06	0.09850888
147	0x3da7702c	0.08175692
148	0x3e0dba29	0.13840546
149	0xbd11d9a5	-0.035607953
150	0x3d9d63fe	0.076850876
151	0x3d9f543d	0.07779739
152	0xbd1f5666	-0.038900755
153	0xbdce7df5	-0.10082618
154	0xbe0bff16	-0.13671526
155	0xbdf7890c	-0.120866865
156	0xbe39bb7e	-0.18137929
157	0xbeacf84b	-0.33783183
158	0xbe7319c3	-0.23740296
159	0xbe837bd1	-0.25680402
160	0xbe0279e6	-0.12741813
161	0xbded5d82	-0.11590101
162	0x3d11b38e	0.035571627
163	0x3d589610	0.052877486
164	0x3bb0f59a	0.0054003717
165	0x3d52138b	0.05128817
166	0x3e195ef0	0.14977622
167	0x3d87ffe6	0.06640606
168	0x3d01c90d	0.031685878
169	0x3df99476	0.1218652
170	0x3d9fca32	0.078022376
171	0x3d42c82f	0.04755419
172	0x3d8085d0	0.06275523
173	0x3c9251f7	0.01786135
174	0x3dbbf5f2	0.0917777
175	0x3e2b527f	0.16730689
176	0x3d9a06a7	0.075208
177	0x3d256cfb	0.040387135
178	0x3e1eb355	0.15498097
179	0x3da6153e	0.081095204
180	0x3d0a3982	0.03374625
181	0x3d8445cd	0.06458626
182	0x3c8e2dc1	0.017355802
183	0x3d9fe807	0.078079276
184	0x3e2d6c23	0.16935782
185	0x3d9a0b56	0.075216934
186	0x3d04049f	0.03223097
187	0x3e026e69	0.1273743
188	0x3dbe886c	0.09303364
189	0x3d5de80a	0.054176368
190	0x3dcf1bad	0.101127006
191	0x3c73e2fb	0.014885659
192	0x3db608ff	0.088884346
193	0x3d41d55b	0.047322612
194	0xbd83bac2	-0.064321056
195	0x3c355d15	0.011069556
196	0xbc6fbfa2	-0.014633091
197	0xbda15d48	-0.0787912
198	0x3c91dd2d	0.01780566
199	0x3d9e1d45	0.077204265
200	0x3cd361af	0.025803415
201	0x3dbdcdb7	0.092677526
202	0x3d441033	0.04786701
203	0xbd2b8649	-0.04187611
204	0x3c0bf111	0.008541361
205	0xbc6116e4	-0.013738368
206	0xbd652f0d	-0.055953074
207	0xbbe5da9b	-0.007014585
208	0x3d322315	0.043490488
209	0xbac23986	-0.0014818169
210	0x3d837895	0.064194836
211	0x3d516e16	0.051130377
212	0xbd0938ec	-0.03350155
213	0x3cd1bf79	0.025603997
214	0xbc4abe7a	-0.012374515
215	0xbd4729f2	-0.048623987
216	0x3cd68040	0.026184201
217	0x3da00304	0.07813075
218	0x3dc5e08e	0.09661971
219	0x3d31f94b	0.043450635
220	0x3e12f7af	0.14352296
221	0x3ddf1f7c	0.10894677
222	0x3cd18142	0.02557433
223	0x3d81b47c	0.06333253
224	0x3d2f6a53	0.042826008
225	0x3d1b5239	0.03792021
226	0x3dd67a4e	0.104725465
227	0x3dd58fba	0.10427804
228	0x3d87d3d0	0.06632197
229	0x3e36a2fc	0.17835611
230	0x3e06408c	0.1311056
231	0x3d0daad1	0.03458673
232	0x3da1eba3	0.07906272
233	0x3d37ace0	0.0448426
234	0x3d3f33a2	0.0466801
235	0x3dd1782a	0.102279976
236	0x3dde167e	0.10844134
237	0x3da2b3e2	0.07944466
238	0x3e2fa6d8	0.1715349
239	0x3e01f979	0.12692823
240	0x3d6ad45e	0.057331435
241	0x3db72cb7	0.089440756
242	0x3d2ab9be	0.041681044
243	0xbe364a77	-0.17801844
244	0xbe2c75eb	-0.16841857
245	0xbe162435	-0.1466225
246	0xbe5de930	-0.21670985
247	0xbe872a51	-0.26399472
248	0xbe49a363	-0.19691233
249	0xbdfc9aec	-0.123342365
250	0xbe76e7ac	-0.24111813
251	0xbe1c1937	-0.15243994
252	0x3e152a86	0.14567003
253	0x3e247087	0.16058551
254	0x3e73b5ae	0.23799774
255	0x3e8a2d41	0.2698765

encoder.level1.bn.weight f4 [12]
0	0x3f066fb7	0.52514213
1	0x3f50eda0	0.81612587
2	0x3edae9a1	0.4275637
3	0xbe527ac4	-0.20554644
4	0x3f27be54	0.6552479
5	0x3f0edc68	0.55805063
6	0x3f456d1f	0.7711963
7	0xbf38d7e4	-0.7220442
8	0x3f123a4a	0.5712019
9	0x3f4aa14f	0.7915239
10	0x3f580355	0.84380084
11	0x3f439849	0.76404244

encoder.level1.bn.bias f4 [12]
0	0x3e9192fb	0.2843245
1	0xbe8daf84	-0.2767297
2	0x3d7e09c2	0.062021025
3	0xba2c2941	-0.00065674266
4	0xbe45ef66	-0.19329605
5	0x3d131177	0.035905328
6	0x3e4c8498	0.19972456
7	0x3e4fc511	0.20290019
8	0x3e2f9489	0.17146505
9	0x3d77c764	0.060492888
10	0x3dc3f50b	0.095682226
11	0xbe34c9a0	-0.17655039

encoder.level1.bn.running_mean f4 [12]
0	0xb9041835	-0.00012597519
1	0xb889405d	-6.544658e-05
2	0xb6c2cc37	-5.8054243e-06
3	0xb496b5fc	-2.8072088e-07
4	0xb8c8eb77	-9.580602e-05
5	0x39e0e820	0.00042897556
6	0x38a6d64b	7.955412e-05
7	0x37f5ccc8	2.9301635e-05
8	0x38992cc9	7.3039504e-05
9	0xb9054733	-0.00012710392
10	0xb9980c8f	-0.00029001056
11	0xb900aac2	-0.00012270643

encoder.level1.bn.running_var f4 [12]
0	0x37847f50	1.579491e-05
1	0x3868f95b	5.554534e-05
2	0x37bdba4d	2.2617309e-05
3	0x2aa06826	2.8493977e-13
4	0x3874adbb	5.8335932e-05
5	0x37164c49	8.958458e-06
6	0x38707462	5.732885e-05
7	0x3623bda2	2.4399274e-06
8	0x38928d64	6.9881586e-05
9	0x367ed5d4	3.7973414e-06
10	0x36ace9c6	5.1532143e-06
11	0x381cd315	3.7389884e-05

encoder.level1.act.weight f4 [12]
0	0x0002b127	2.47221e-40
1	0x3f16e3bc	0.58941245
2	0xbdcf87b9	-0.10133309
3	0x85284924	-7.912756e-36
4	0x3f4dce43	0.80392855
5	0x3f238038	0.6386752
6	0x3f9af85f	1.2107047
7	0x2008227a	1.1531055e-19
8	0x3fa79b70	1.3094311
9	0x3e86af68	0.263057
10	0x3e6a021d	0.22852369
11	0x3c8995cd	0.016795063

encoder.level2_0.conv.0.weight f4 [12, 1, 3, 3]
0	0xbe3666ec	-0.17812699
1	0x3b9124f4	0.004429454
2	0xbac0175b	-0.0014655398
3	0xbe365e41	-0.17809393
4	0x3ea96b9d	0.33089915
5	0x3f07bd38	0.530231
6	0xbd4691c4	-0.048478857
7	0x3e5f4884	0.21805006
8	0x3e9d2b21	0.30696967
9	0xbcbf9b54	-0.023389496
10	0xbd129354	-0.035785034
11	0xbd9b2af0	-0.07576549
12	0x3e0cc46b	0.13746803
13	0xbc441fca	-0.01197047
14	0xbefcbae2	-0.4936133
15	0x3e644316	0.22291216
16	0x3e1273c7	0.14301978
17	0xbe4c4bd7	-0.19950806
18	0xbe707dbf	-0.23485468
19	0xbe7c5427	-0.24641477
20	0xbe882ff1	-0.26599076
21	0xbda5c20c	-0.08093652
22	0xbe2bbe52	-0.1677182
23	0xbe531011	-0.20611598
24	0xbe146e06	-0.14495096
25	0xbde0ec6c	-0.10982594
26	0xbe588f19	-0.21148337
27	0xbd941c2f	-0.07231938
28	0xbda0c3af	-0.07849824
29	0x3d2575c6	0.04039552
30	0x3ccc29a7	0.024922205
31	0xbccd5d7b	-0.025068989
32	0x3a65ef5a	0.0008771323
33	0xbd02dd2a	-0.0319492
34	0x3dab88d7	0.083757095
35	0x3d3ae60f	0.045629557
36	0xbc0a0b63	-0.008425566
37	0xbd5e8d46	-0.054333948
38	0xbe610752	-0.21975449
39	0x3cd8332b	0.026391586
40	0x3e1adb1e	0.15122649
41	0xbe9a9d0e	-0.30197948
42	0x3dfeced0	0.1244179
43	0x3ed07ce4	0.40720284
44	0xbcb51b2f	-0.022107689
45	0x3dc060f6	0.09393494
46	0x3d1e569c	0.038656816
47	0x3d553019	0.052047823
48	0x3dc3f484	0.09568122
49	0xbea0856c	-0.31351793
50	0xbe9e8ffc	-0.30969226
51	0x3cba1322	0.022714201
52	0xbec5a226	-0.38600272
53	0xbed6daa1	-0.41963676
54	0xbc41c52c	-0.011826795
55	0x3e5c23e2	0.21498063
56	0x3e39c4ae	0.18141434
57	0xbdf633fe	-0.120216355
58	0x3e826275	0.25465742
59	0x3e31659a	0.17323914
60	0xbe87f977	-0.26557514
61	0xbe67c8bd	-0.2263517
62	0xbe511aa7	-0.20420323
63	0xbd5c82e2	-0.053835757
64	0xbe470eb1	-0.19439198
65	0xbcd91503	-0.026499277
66	0xbeaa37c0	-0.3324566
67	0xbe87b1be	-0.26502794
68	0x3e9b49cb	0.30329737
69	0xbe471153	-0.19440202
70	0x3e727155	0.23676045
71	0x3efd086c	0.49420488
72	0xbe9e0f95	-0.30871263
73	0xbe770e39	-0.2412652
74	0xbdb5c2c0	-0.08875036
75	0xbe1be818	-0.15225255
76	0x3dfe7cb2	0.124261275
77	0x3e8d8fb8	0.2764871
78	0xbccb2314	-0.024797
79	0x3e809f27	0.25121424
80	0x3e164133	0.14673309
81	0x3d41b190	0.047288477
82	0x3d32c214	0.04364212
83	0x3d42cdf5	0.047559697
84	0x3cb2aef2	0.021811936
85	0xbe94d146	-0.29065913
86	0xbe9b31dc	-0.30311477
87	0xbd0df4fc	-0.034657463
88	0xbebab72b	-0.3646787
89	0xbec617a1	-0.38689902
90	0xbd14d447	-0.036335256
91	0xbd8a2410	-0.067451596
92	0xbdc7cd2b	-0.097559296
93	0xbcb813cc	-0.022470377
94	0x3eb046fd	0.3442916
95	0x3ea7cb64	0.32772362
96	0x3ac756cf	0.0015208366
97	0x3ecf26cb	0.40459284
98	0x3eefc825	0.46832386
99	0xbe51b1f8	-0.20478046
100	0x3e3e952a	0.18611589
101	0x3d5d79fb	0.054071408
102	0x3dac5167	0.08413964
103	0x3ef81238	0.484514
104	0x3ea02938	0.31281447
105	0x3bb9168c	0.0056484398
106	0x3ea9bf8e	0.33153957
107	0x3ec0619a	0.37574464

encoder.level2_0.conv.1.dense.0.weight f4 [12, 12]
0	0x3eb0a503	0.34500894
1	0xbf1aa2f8	-0.6040492
2	0x3e5736b4	0.21016961
3	0x868f92b9	-5.400621e-35
4	0x3ece2507	0.40262625
5	0x3d965382	0.073401466
6	0x3dd0b8df	0.10191511
7	0x3d93ee2b	0.07223161
8	0xbf055f3b	-0.52098435
9	0xbdea1587	-0.11429887
10	0xbd74f88b	-0.05980734
11	0x3f0ce295	0.55033237
12	0x3ebdc84d	0.3706688
13	0xbe782a1b	-0.24234812
14	0x3e714192	0.2356017
15	0x064e2c55	3.8776864e-35
16	0xbe9692f5	-0.29408994
17	0xbe59929e	-0.21247336
18	0xbf1e1b68	-0.6176057
19	0xbdd90c30	-0.10598028
20	0xbee0217e	-0.43775553
21	0x3db034a3	0.0860379
22	0x3cf0edc2	0.029410247
23	0xbe8d5db7	-0.2761056
24	0xbe1ed057	-0.15509163
25	0x3d8896f3	0.06669416
26	0xbe937471	-0.28799775
27	0x048f81f8	3.3738496e-36
28	0xbd4b9541	-0.049702886
29	0xbd961385	-0.07327942
30	0xbcabba51	-0.020962866
31	0xbb6eeae9	-0.0036455935
32	0x3c2406d3	0.010011393
33	0x3d89a819	0.06721515
34	0x3c55e0f3	0.01305412
35	0x3d410e99	0.047133062
36	0x0006ffed	6.42822e-40
37	0x00054dcb	4.87084e-40
38	0x80006ac4	-3.83e-41
39	0x0004450e	3.92114e-40
40	0x8003bf00	-3.44024e-40
41	0x0007df7d	7.23021e-40
42	0x0002a6c5	2.43497e-40
43	0x00068fbd	6.02577e-40
44	0x00022040	1.9524e-40
45	0x8001e4e7	-1.7395e-40
46	0x000054a4	3.0363e-41
47	0x0006a0f8	6.08758e-40
48	0x3ecec712	0.40386254
49	0xbe399b36	-0.18125615
50	0x3ec930da	0.39295083
51	0x05bf3a6a	1.7983012e-35
52	0x3f075be6	0.528746
53	0xbe8e7ac2	-0.27828032
54	0x3eaceb92	0.33773476
55	0x3e183b1f	0.14866303
56	0xbd1e5b92	-0.038661547
57	0x3d2c937f	0.04213285
58	0x3dc581d0	0.096439004
59	0xbe930a9d	-0.28719035
60	0x3dbf8130	0.093508124
61	0x3d41a7a0	0.047279
62	0x3e3b287c	0.18277162
63	0x862d79ae	-3.262708e-35
64	0x3c05bc52	0.008162575
65	0x3e521f51	0.20519759
66	0x3c1a284b	0.009409021
67	0xbbb8873f	-0.005631357
68	0x3b5f2608	0.0034049768
69	0x3e4d41b1	0.2004459
70	0xbe83eb62	-0.2576552
71	0xbe9cc4fc	-0.30619037
72	0x3e84e74f	0.25957724
73	0xbdbb1893	-0.091355465
74	0x3effea5b	0.49983487
75	0x8550dd22	-9.820729e-36
76	0x3e089a32	0.13340071
77	0xbe5a0714	-0.21291763
78	0x3d94bb15	0.072622456
79	0x3d7f777e	0.062369816
80	0xbdc18720	-0.09449601
81	0x3be33627	0.0069339457
82	0x3d84e77b	0.06489464
83	0xbe8f62db	-0.28005108
84	0x3c1ab25d	0.009441939
85	0xbe09ef90	-0.13470292
86	0x3eaba74e	0.3352608
87	0x835340f0	-6.208187e-37
88	0x3d32a23f	0.04361176
89	0x3e53b7e4	0.20675617
90	0x3c74041a	0.014893556
91	0xbc1beb66	-0.009516573
92	0x3cbe7d04	0.023252971
93	0xbd5d3383	-0.054004204
94	0x3b51b379	0.0031997843
95	0x3df04fb5	0.11733953
96	0xbef80437	-0.48440716
97	0x3ebc0ba2	0.36727625
98	0xbf412f35	-0.7546266
99	0x058ea80e	1.341535e-35
100	0xbe12e5d8	-0.14345491
101	0x3ed1e15e	0.40992254
102	0x3d155c63	0.03646506
103	0xbd02cc4c	-0.031933114
104	0xbdc30448	-0.09522301
105	0xbdab52ba	-0.08365388
106	0xbe0b21ab	-0.13587062
107	0x3e498351	0.19679
108	0x3e8c9daf	0.27464053
109	0x3d4ce047	0.050018575
110	0x3e5f0aeb	0.21781509
111	0x048c20d0	3.2943975e-36
112	0x3dbcd25a	0.09219809
113	0xbe8666ea	-0.26250392
114	0x3d228988	0.03968194
115	0xbae84384	-0.0017720317
116	0xbd4618b0	-0.048363388
117	0x3f32b130	0.69801617
118	0xbd38c5b4	-0.04511042
119	0xbe6e3b2c	-0.2326476
120	0xbe6bcbb9	-0.23026933
121	0x3c55a9a7	0.013040937
122	0xbe313c5f	-0.17308186
123	0x860fbab9	-2.7032493e-35
124	0xbda6cd6c	-0.0814465
125	0x3ec2a94e	0.38019794
126	0x3c0e8fdd	0.008701292
127	0x3ce7124a	0.028206963
128	0xbd561350	-0.05226451
129	0xbe4754d9	-0.1946596
130	0x3f03af40	0.51439285
131	0x3f286fe6	0.65795743
132	0xbe2b0429	-0.16700806
133	0x3e4992dd	0.1968493
134	0xbeac7858	-0.33685565
135	0x05fbe5f2	2.3688395e-35
136	0xbdc988a8	-0.09840518
137	0xbd0f778f	-0.03502613
138	0xbcae33dd	-0.021264965
139	0xbcbbff11	-0.022948774
140	0x3e3b7206	0.18305215
141	0xbea2b32e	-0.31777328
142	0x3ca8a4c0	0.020586371
143	0xbeeb14ac	-0.4591421

encoder.level2_0.conv.1.dense.0.bias f4 [12]
0	0xbe6c7a78	-0.23093593
1	0x3e11d1f3	0.14240246
2	0xbd2e4949	-0.04255036
3	0x80039b94	-3.31317e-40
4	0x3e8d8ea1	0.2764788
5	0x3e7d7171	0.24750306
6	0x3e8598ae	0.26093048
7	0xbeb613de	-0.35562032
8	0xbeb4ff74	-0.35351145
9	0x3e7bada4	0.24577957
10	0xbe9b299f	-0.30305192
11	0x3d512b36	0.0510666

encoder.level2_0.conv.1.dense.1.weight f4 [12]
0	0x3ecef0f6	0.40418214
1	0x800639ea	-5.71789e-40
2	0x3d972261	0.07379604
3	0x00030e08	2.8054e-40
4	0x800639ea	-5.71789e-40
5	0x800639ea	-5.71789e-40
6	0x800639ea	-5.71789e-40
7	0x3ed499a4	0.41523468
8	0x3f2fb3c6	0.6863369
9	0xbe1dc621	-0.15407611
10	0x3f0176d2	0.5057193
11	0x8002b209	-2.47538e-40

encoder.level2_0.conv.2.weight f4 [16, 12, 1, 1]
0	0xb75e29c3	-1.3241955e-05
1	0xb6951f8c	-4.4442186e-06
2	0xb5158e44	-5.571385e-07
3	0x0000353a	1.9094e-41
4	0x370f49ec	8.5406755e-06
5	0x36bfcbfa	5.7159896e-06
6	0xb32b3b5d	-3.986803e-08
7	0xb584d9dd	-9.898173e-07
8	0x348e4d19	2.6505657e-07
9	0xb6e5de4d	-6.850611e-06
10	0xb6c33707	-5.817859e-06
11	0xb58abac4	-1.0336157e-06
12	0x3c8e4839	0.017368423
13	0x3e384b1a	0.17997399
14	0xbc9634d8	-0.018335745
15	0x00004a32	2.6616e-41
16	0x3e529138	0.20563209
17	0x3be5b151	0.007009663
18	0x3e527e1f	0.20555924
19	0x3e807fc8	0.2509749
20	0xbebd4ca9	-0.3697255
21	0x3b6af5f2	0.0035852161
22	0x3c69adf8	0.014262669
23	0x3c3d42d7	0.01155158
24	0xbc2b6147	-0.010460204
25	0x3d77f9ed	0.060541082
26	0xbc351f01	-0.011054755
27	0x8001d2bf	-1.67437e-40
28	0x3e227ba2	0.15867475
29	0xb9893136	-0.0002616734
30	0x3eaaff41	0.33397868
31	0xbdbbb29c	-0.091649264
32	0x3eb4051a	0.35160142
33	0x3a865758	0.0010249419
34	0x3bb1250c	0.0054060277
35	0xbbfd6b2f	-0.0077337245
36	0xbcc373c8	-0.02385892
37	0x3bfb1c19	0.0076632616
38	0xbc2a4d7c	-0.01039445
39	0x80008ed4	-5.1237e-41
40	0x3af636bb	0.0018784621
41	0xbd820990	-0.0634948
42	0xbb178c33	-0.0023124337
43	0xbcf5cae7	-0.030003978
44	0xb9902c41	-0.00027498792
45	0xbe80214c	-0.25025403
46	0x3e8becd3	0.2732912
47	0x3d61f26f	0.055162843
48	0xbd1d623e	-0.03842377
49	0x3d60cfe2	0.054885752
50	0x3c93b8be	0.018032428
51	0x0000feb8	9.1376e-41
52	0xbcbdd6b4	-0.023173667
53	0x3e427a43	0.18991952
54	0xbb9b3a41	-0.004737169
55	0x3d319917	0.04335889
56	0x3c60c620	0.013719112
57	0xbd819705	-0.06327633
58	0xbe81a29c	-0.25319374
59	0x3e8a19f4	0.26972926
60	0xbd8522ee	-0.06500803
61	0xbe05d16b	-0.13068168
62	0x39b3f7e6	0.0003432624
63	0x80002214	-1.2225e-41
64	0x3df4c78b	0.11952122
65	0x3d95aa75	0.07307903
66	0xbb92e38b	-0.0044826916
67	0xbd448f61	-0.0479883
68	0x3cc3c7c9	0.023898976
69	0x3e209780	0.15682793
70	0xbe46238e	-0.193495
71	0x3d7b1553	0.061299633
72	0xbddafb42	-0.10692455
73	0xbbc97af6	-0.0061486913
74	0xbc88630c	-0.016648792
75	0x80002736	-1.4066e-41
76	0xbc2fc9b4	-0.010729242
77	0x3e71f5c1	0.23628904
78	0x3cb50cee	0.022100892
79	0x3ce22fc8	0.027610675
80	0x3c4d024c	0.012512755
81	0xbd636f99	-0.05552635
82	0xbe1c3c6f	-0.15257429
83	0x3d19af0d	0.037520457
84	0x3e88e595	0.26737657
85	0x3e56433d	0.20924087
86	0xbc3b48b8	-0.011430912
87	0x8000ac35	-6.1776e-41
88	0xbdd120ba	-0.1021132
89	0xbd210bba	-0.039317824
90	0x3b68e038	0.0035534035
91	0xbd2ad062	-0.041702636
92	0xba5d1fcc	-0.0008435219
93	0xbd15f5d9	-0.03661141
94	0xbcf48509	-0.029848592
95	0x3e245101	0.16046526
96	0xbe3e5b78	-0.1858958
97	0xbe060220	-0.13086748
98	0xbb7032ae	-0.0036651301
99	0x8001ce9a	-1.6595e-40
100	0x3ea0da7c	0.3141669
101	0xbc0c0cb1	-0.008547948
102	0xbe27dd49	-0.16393007
103	0xbda2578d	-0.07926855
104	0x3cd953a8	0.026529148
105	0xbbb094ac	-0.005388817
106	0xbc9108e6	-0.017704438
107	0xbd160052	-0.0366214
108	0x3c565407	0.013081557
109	0x3cbf37ef	0.0233421
110	0xbcf8c07c	-0.030365221
111	0x80002219	-1.2232e-41
112	0xbc7467d5	-0.014917334
113	0xbeb6e42d	-0.3572096
114	0xbc0f8341	-0.008759321
115	0xbc779d98	-0.015113257
116	0xbb499f38	-0.0030765068
117	0x3e4e9dc4	0.2017737
118	0x3e038d3c	0.12846845
119	0xbcdc64a5	-0.02690346
120	0xbdf6f464	-0.120583326
121	0xbe924eaf	-0.28575656
122	0x3c99aef2	0.018760178
123	0x0000216c	1.199e-41
124	0xbe6c3688	-0.23067677
125	0xbd7af21f	-0.06126606
126	0x3e57984d	0.21054192
127	0x3daeb5ca	0.08530767
128	0xbd3ba42d	-0.045810867
129	0xbc6253fe	-0.013813971
130	0xbd3d9a9b	-0.04629002
131	0x3b5be40e	0.003355268
132	0xba2329db	-0.00062241935
133	0x3a6fe0ea	0.0009150641
134	0xb949e29a	-0.0001925327
135	0x0000de7f	7.9817e-41
136	0xb9900b32	-0.00027474161
137	0x3ae7e035	0.001769072
138	0xba1b14de	-0.000591589
139	0x3a842adc	0.0010083574
140	0xba98c23a	-0.0011654564
141	0xb9b81d7a	-0.00035117177
142	0xba4911f9	-0.00076702196
143	0xbaec7b3f	-0.0018042101
144	0xb6884122	-4.0606983e-06
145	0x375e26a1	1.3241225e-05
146	0xb5438e0c	-7.2849866e-07
147	0x00010e0f	9.6879e-41
148	0xb6cd4ff1	-6.1187825e-06
149	0xb7345ef2	-1.0750942e-05
150	0x33ba5bbb	8.6779856e-08
151	0x33c8be9d	9.347898e-08
152	0xb5f378ef	-1.8140107e-06
153	0xb76e22a7	-1.4193974e-05
154	0xb77e5839	-1.5160121e-05
155	0xb4e914e1	-4.3414823e-07
156	0x3c89e420	0.016832411
157	0x3b8f8769	0.004380156
158	0x3cc7dfd8	0.02439873
159	0x800104af	-9.3516e-41
160	0xbbca452e	-0.0061727976
161	0xb9f0744b	-0.00045863012
162	0x3c3cfe94	0.0115353055
163	0xbd12e949	-0.03586701
164	0x3b4c1026	0.0031137555
165	0x3ea50af1	0.3223491
166	0xbe585f4c	-0.21130103
167	0x3dae0ea2	0.08498885
168	0x3dd4c189	0.103884764
169	0x3dbe0eaf	0.092801444
170	0x3d0ab4d4	0.033863857
171	0x8000506f	-2.8854e-41
172	0xbdfcec6f	-0.12349784
173	0x3e05b051	0.1305554
174	0x3caffbea	0.021482427
175	0xbc335e1f	-0.010947733
176	0xbcd8d1b8	-0.02646719
177	0xbdce1a32	-0.1006359
178	0xbd53e74c	-0.051734254
179	0xbc234928	-0.009966172
180	0x38274f78	3.9889914e-05
181	0xb7705763	-1.4325461e-05
182	0xb19e8564	-4.61357e-09
183	0x8001db27	-1.70453e-40
184	0x36d5a668	6.367267e-06
185	0x37866aba	1.6023743e-05
186	0x3374144a	5.682913e-08
187	0xb5a1ca23	-1.2054264e-06
188	0x3477f68f	2.3093365e-07
189	0x37d29130	2.5101559e-05
190	0x380c41f8	3.344004e-05
191	0xb60f3f32	-2.1345445e-06

encoder.level2_0.bn.weight f4 [16]
0	0xbe5d853c	-0.21632856
1	0x3f6ada56	0.91739404
2	0x3f5a3f1b	0.8525254
3	0x3f13f57c	0.57796454
4	0x3f0c391d	0.5477465
5	0x3f2c445f	0.67291826
6	0x3f0e28b2	0.55530846
7	0x3eaefb59	0.34176138
8	0x3f2e185a	0.6800591
9	0x3f572988	0.84047747
10	0x3f6229c2	0.8834497
11	0xbafb6e75	-0.0019182699
12	0xbe5294da	-0.20564595
13	0x3ea21418	0.31655955
14	0x3eee60c3	0.46558198
15	0xbe52da1e	-0.20591018

encoder.level2_0.bn.bias f4 [16]
0	0xbbae0917	-0.005311142
1	0x3e16c8ec	0.14725083
2	0x3df50552	0.119639054
3	0x3dd63a15	0.10460297
4	0x3dec7d77	0.11547368
5	0x3cbb0485	0.022829304
6	0x3d8b8b09	0.06813628
7	0xbec0ee84	-0.37681973
8	0x3e3db205	0.1852494
9	0xbc4ef198	-0.012630843
10	0x3e05f4a9	0.13081612
11	0xbedd1836	-0.43182534
12	0xbb737365	-0.0037147638
13	0x3d21c162	0.039491065
14	0x3e816c87	0.25278112
15	0xbb9544f4	-0.004555339

encoder.level2_0.bn.running_mean f4 [16]
0	0xb59798a7	-1.1294804e-06
1	0x39e7c1b6	0.0004420408
2	0xb95d48c3	-0.00021103308
3	0x3a79ca75	0.00095287646
4	0x3bbb5162	0.0057164887
5	0xba4b5f58	-0.0007758043
6	0x3b80d881	0.0039320593
7	0xbaabc4c7	-0.0013104909
8	0x3ab0492f	0.0013449545
9	0xbb2d7e01	-0.002647281
10	0x3b16aaa9	0.0022989905
11	0x37ae1af1	2.0754962e-05
12	0xb62bf1fe	-2.5621844e-06
13	0xbb1a1b52	-0.002351482
14	0x3a792d04	0.0009505304
15	0xb607d63f	-2.0241275e-06

encoder.level2_0.bn.running_var f4 [16]
0	0x2a511236	1.8569247e-13
1	0x38128cdd	3.49403e-05
2	0x3842597a	4.6336536e-05
3	0x376f3781	1.4258433e-05
4	0x37a31cc0	1.9444502e-05
5	0x3743c0b2	1.1667771e-05
6	0x377ec8b1	1.5186307e-05
7	0x3750a397	1.2435855e-05
8	0x37393b5a	1.1040678e-05
9	0x3809c6e6	3.2848584e-05
10	0x36a8cf91	5.030954e-06
11	0x30674373	8.413316e-10
12	0x2ac6d102	3.5316894e-13
13	0x3774da24	1.4594323e-05
14	0x370f9eec	8.560466e-06
15	0x2a1a7a73	1.3720431e-13

encoder.level2_0.act.weight f4 [16]
0	0x3786f1aa	1.6086578e-05
1	0x3f11ff8e	0.5703057
2	0x3ecee1c5	0.40406623
3	0xbe958222	-0.29200846
4	0xbda78d17	-0.081812076
5	0x3dff4861	0.12464977
6	0x3ab4056d	0.0013734527
7	0x3f145537	0.5794253
8	0x3e7bd5c2	0.24593261
9	0x3f31e6f5	0.6949304
10	0x3ea2b083	0.31775293
11	0x3f05f532	0.52327263
12	0x38f88cb4	0.000118517695
13	0xbe42675c	-0.18984741
14	0x179d8a2f	1.018077e-24
15	0x35075dff	5.04282e-07

encoder.level2.0.c1.conv.weight f4 [24, 8, 1, 1]
0	0xb7866b37	-1.602397e-05
1	0xbb2174f3	-0.0024636358
2	0x3c6525e8	0.013986088
3	0x3e3cecdf	0.18449734
4	0xbe884391	-0.2661405
5	0xbe0346a3	-0.12819915
6	0xbe273518	-0.16328847
7	0xbd4de75e	-0.050269477
8	0xb6508202	-3.107009e-06
9	0x3e21005b	0.15722792
10	0xbd635178	-0.055497617
11	0xbd0b9a46	-0.034082673
12	0x3c8ada59	0.01694982
13	0xbd8c021c	-0.0683634
14	0xbcf82691	-0.030291827
15	0x3da5afe8	0.08090192
16	0xb739efb4	-1.10826695e-05
17	0x3c4b5253	0.012409764
18	0xba84aa37	-0.0010121529
19	0xbe0a0252	-0.13477448
20	0x3dcacb4a	0.099020556
21	0x3e0be373	0.13660984
22	0x3d2f3ab3	0.04278059
23	0xbda70d10	-0.08156788
24	0x3539f9c3	6.928132e-07
25	0xbe1e8e97	-0.15484081
26	0xbdb5b4c4	-0.08872369
27	0x3d2287a1	0.039680127
28	0x3d5d2caf	0.05399769
29	0xbc090840	-0.008363783
30	0xbd839f5c	-0.0642688
31	0x3b3449a8	0.0027509723
32	0xb5a30256	-1.2145126e-06
33	0x3c327c4c	0.0108938925
34	0xbb9a4947	-0.0047084424
35	0xbe3c1d91	-0.18370654
36	0xbd36d738	-0.044638842
37	0xbe2405bf	-0.16017817
38	0xbd8bb5d3	-0.068217896
39	0x3d18e3f6	0.037326775
40	0x369bdd01	4.645088e-06
41	0x3dfc5c54	0.12322298
42	0xbe1c987b	-0.15292542
43	0xbb2508ba	-0.0025182203
44	0x3c63e7eb	0.013910274
45	0x3d2aaf3f	0.041671034
46	0xbd0412c4	-0.03224446
47	0x3d37dd43	0.044888746
48	0xb5076566	-5.0438973e-07
49	0xbd1b09f2	-0.03785128
50	0x3c4c92aa	0.012486139
51	0xbdcb4ba0	-0.09926534
52	0xbe34b2d1	-0.17646338
53	0x3cab8062	0.020935241
54	0x3e03fd02	0.12889484
55	0xbe1709e7	-0.14749871
56	0x3696eef5	4.4981666e-06
57	0xbc5598b3	-0.013036895
58	0x3e2d4ac4	0.16923052
59	0xbb52347e	-0.0032074745
60	0xbd459829	-0.048240814
61	0xbc2a59c3	-0.010397377
62	0x3ccc54e1	0.024942817
63	0x3d895d62	0.067072645
64	0xb6e22f0a	-6.740801e-06
65	0x3e21cdb2	0.15801123
66	0xbbb89a52	-0.005633631
67	0xbc60a007	-0.0137100285
68	0x3d82299d	0.06355593
69	0x3c2de44f	0.010613515
70	0xbd9ca357	-0.07648342
71	0x3d856b93	0.06514659
72	0xb4dc7140	-4.1060594e-07
73	0x3e97c315	0.29641023
74	0x3e20303b	0.15643398
75	0x3c3aeeb5	0.011409451
76	0xbbee8976	-0.00727957
77	0x3c2575e8	0.010098912
78	0x3cd83777	0.026393635
79	0x3d66ed58	0.056378692
80	0x350ac61f	5.169731e-07
81	0x3e19abc5	0.15006931
82	0xbe92148f	-0.2853131
83	0x3b816186	0.0039483933
84	0x3c5433e0	0.012951821
85	0xbbc4c8b7	-0.0060053724
86	0xbcf98552	-0.03045908
87	0xbdd83914	-0.10557762
88	0x370b56d5	8.305263e-06
89	0xbc3fc7af	-0.011705323
90	0xbcfc7b7f	-0.030820606
91	0x3c455513	0.012044209
92	0xbd5dba42	-0.054132707
93	0xbd679abc	-0.05654405
94	0xbbc26bdd	-0.0059332685
95	0x3e278052	0.16357544
96	0x000162b7	1.27248e-40
97	0x00002eca	1.6785e-41
98	0x80003298	-1.815e-41
99	0x0001d63b	1.68687e-40
100	0x8000a6be	-5.9816e-41
101	0x80010746	-9.4445e-41
102	0x800116a0	-9.9952e-41
103	0x8000a808	-6.0278e-41
104	0x3d81288d	0.063065626
105	0x3e2950fb	0.16534798
106	0x3d4a52cc	0.049395368
107	0x3c4df823	0.012571367
108	0xb7a0f72b	-1.9188583e-05
109	0x3dd71da2	0.10503699
110	0xbddda7f1	-0.10823048
111	0xb39aa5d0	-7.201345e-08
112	0xbdf44964	-0.11928061
113	0xbc8de36c	-0.017320357
114	0x3e6b34cc	0.22969359
115	0x3d3be7a8	0.04587522
116	0x37ef5cd2	2.8534243e-05
117	0x3cb23bbb	0.021756997
118	0x3c8516ec	0.016246282
119	0xb2ff6846	-2.9733325e-08
120	0x3e3a5a92	0.18198612
121	0xbc15f276	-0.0091520455
122	0x3d83acde	0.06429456
123	0xbde96eec	-0.1139811
124	0x3835a350	4.330586e-05
125	0xbc9a67f4	-0.018848397
126	0x3d7eac94	0.062176302
127	0x342a5727	1.586419e-07
128	0xbc643697	-0.013929031
129	0x3e6a943e	0.22908112
130	0x3c0c79b4	0.008573938
131	0xbaddbe94	-0.0016917759
132	0x35ebc79d	1.756696e-06
133	0x3df4b4d1	0.119485505
134	0xbdcd3549	-0.10019929
135	0xb1c94369	-5.8575336e-09
136	0xbe38d710	-0.1805079
137	0x3cff606a	0.031173903
138	0xbe15dbe9	-0.1463467
139	0xbe1044c3	-0.1408873
140	0x36ea5d31	6.9845923e-06
141	0x3d8b4ef9	0.06802172
142	0x3dbffd8d	0.09374533
143	0x33cb8706	9.477485e-08
144	0x3c0bbb42	0.008528532
145	0x3e49fe53	0.19725923
146	0x3bfaf82d	0.0076589794
147	0x3b373162	0.0027953018
148	0x3856a220	5.1172567e-05
149	0xbd340988	-0.043954402
150	0xbd5978e7	-0.053093817
151	0xb389da51	-6.419271e-08
152	0x3b80214e	0.00391022
153	0x3e1fa6b9	0.15590943
154	0xbcbcd34a	-0.02304997
155	0xbc8004e2	-0.015627328
156	0x37993571	1.8263907e-05
157	0x3da29d26	0.0794013
158	0x3be66868	0.007031489
159	0x345d1ff1	2.0593849e-07
160	0x3d4261c2	0.04745651
161	0x3ca4ef3b	0.020133605
162	0x3d0acc1e	0.033886068
163	0xbe10410c	-0.14087313
164	0x374874b2	1.1948099e-05
165	0xbd00c183	-0.031434547
166	0x3dfac627	0.12244826
167	0x32e407a6	2.6546171e-08
168	0xbe31a799	-0.1734909
169	0x3cd63ed1	0.026153
170	0x3e1fe58f	0.15614913
171	0x3ca842ae	0.020539608
172	0xb785cde4	-1.595071e-05
173	0x3c262b84	0.010142211
174	0x3d925737	0.07145541
175	0xb3248d60	-3.8312805e-08
176	0x3e5c1731	0.21493222
177	0xbc0e6eba	-0.008693391
178	0xbe35974e	-0.177335
179	0x3ca288e9	0.019840674
180	0xb88bed40	-6.672228e-05
181	0x3b9aaa8a	0.004720037
182	0xbd92ef3b	-0.07174536
183	0xb31d9b5b	-3.6695706e-08
184	0xbc953f67	-0.01821871
185	0xbe4850b0	-0.1956203
186	0x3b3899f8	0.0028167944
187	0xbcef38a3	-0.029201811
188	0x37a0d869	1.917426e-05
189	0x3c4f0384	0.0126351155
190	0x3d85e034	0.06536904
191	0x33624fce	5.2692307e-08

encoder.level2.0.d1.conv.0.weight f4 [24, 1, 3, 3]
0	0xbd2de995	-0.04245909
1	0x3d4a70cc	0.049423978
2	0xbc39354d	-0.011304212
3	0x3dd57940	0.10423517
4	0x3e983c41	0.2973347
5	0x3b45f5cd	0.0030206323
6	0xbdb0a3d0	-0.08624995
7	0x3ddb8161	0.107180364
8	0xbd605bca	-0.054775037
9	0x3bb2998d	0.0054504336
10	0x3cefffbc	0.029296748
11	0x3d3d213d	0.046174277
12	0x3d92c99d	0.07167361
13	0x3cdf9812	0.027294192
14	0xbab5afe7	-0.0013861627
15	0x3bcd7890	0.0062704757
16	0x3c159220	0.009129077
17	0xbcbeb6e6	-0.023280572
18	0xbd4fa09e	-0.050690286
19	0x3e135aaf	0.14390062
20	0x3d92ddca	0.07171209
21	0xbbb6f459	-0.0055833277
22	0xbeb8a1f2	-0.36061054
23	0xbedbb850	-0.42914057
24	0x3e1206a3	0.14260344
25	0x3f044737	0.51671165
26	0x3d2f4358	0.042788833
27	0xbe090590	-0.13381028
28	0xbd6f451a	-0.05841551
29	0xbdae14ee	-0.08500086
30	0x3e2f9ecc	0.1715042
31	0x3f0a1732	0.53941643
32	0x3cf40166	0.029785823
33	0xbe03daf0	-0.12876487
34	0x3d335040	0.043777704
35	0xbde41c6b	-0.11138233
36	0x3eb5bfa9	0.35497788
37	0x3d89b773	0.06724443
38	0xbd2e2ea3	-0.042524945
39	0x3ebaae0a	0.36460906
40	0xbe84389b	-0.25824437
41	0xbe6079d1	-0.2192147
42	0xbc92881a	-0.017887164
43	0xbe41d229	-0.18927826
44	0xbd87b092	-0.06625475
45	0x3c73745c	0.014859285
46	0xbe02225c	-0.1270842
47	0xbcd6d0e4	-0.026222654
48	0xbe871ecf	-0.26390693
49	0x3f3f0013	0.7460949
50	0x3d79758f	0.06090313
51	0xbd53a020	-0.05166638
52	0xbe322086	-0.17395219
53	0xbd0904f3	-0.033451986
54	0x3e01a798	0.12661588
55	0x3e0a1b19	0.134869
56	0xbe9fb322	-0.31191355
57	0x3d652f6c	0.05595343
58	0x3dda59c0	0.1066165
59	0x3dfb6bb6	0.122764036
60	0xbd384f37	-0.04499742
61	0xbeedfc44	-0.46481526
62	0xbb21cb63	-0.0024687878
63	0xbe850350	-0.2597909
64	0xbeff1264	-0.49818718
65	0xbd87220f	-0.06598293
66	0x3e8c876d	0.27447072
67	0x3e447d96	0.19188532
68	0x3e38fc94	0.18065101
69	0x3da3bcb8	0.079949796
70	0x3db4f840	0.088364124
71	0xbc084e4b	-0.008319448
72	0xbdc41e9a	-0.09576149
73	0xbee158c3	-0.44013032
74	0xbd053acc	-0.032526776
75	0x3d843357	0.06455105
76	0x3ed8b33f	0.42324254
77	0x3e38061b	0.17971079
78	0xbc971d78	-0.018446669
79	0x39a1111c	0.0003072106
80	0xbd23b1ef	-0.039964613
81	0x3e3fac21	0.18718006
82	0x3e8adc02	0.27120978
83	0x3bae602e	0.005321524
84	0x3dca2ff5	0.09872428
85	0xbeac3381	-0.33633044
86	0xbdec7181	-0.11545087
87	0xbd94fb22	-0.07274462
88	0xbe56518e	-0.20929548
89	0x3e582ba4	0.21110398
90	0x3d6ed00d	0.05830388
91	0xbd8f1d84	-0.069880515
92	0xbbaf6f4d	-0.0053538443
93	0xbdbac1cd	-0.09118996
94	0x3ee361b8	0.4441049
95	0xbde18dd9	-0.110133834
96	0xbdfc1240	-0.123081684
97	0xbe84ed28	-0.25962186
98	0x3dd340ea	0.10315116
99	0xbd2969f9	-0.04136083
100	0xbdada33e	-0.084784016
101	0x3d0161dd	0.03158747
102	0xbeacf513	-0.33780727
103	0xbeb0b2c1	-0.34511378
104	0x3cac2f86	0.021018755
105	0x3d174437	0.03693029
106	0x3d075cb3	0.03304739
107	0x3d78dc2e	0.060756855
108	0x3e33d475	0.17561515
109	0x3e9536c8	0.29143357
110	0x3d87701c	0.0661318
111	0xbcfbd8f1	-0.030743094
112	0xbeb62069	-0.35571602
113	0xbd806919	-0.06270046
114	0x3e93ef51	0.2889352
115	0xbd70affb	-0.058761578
116	0xbe52c59f	-0.20583199
117	0x3e4b06e7	0.19826852
118	0xb685bd51	-3.985748e-06
119	0x3aa0a10b	0.0012255026
120	0x3e3f719d	0.18695684
121	0x3d33fa93	0.043940138
122	0x3e4da7aa	0.2008349
123	0x3e02bf92	0.12768391
124	0x3dcbe0ee	0.09955011
125	0x3d878b32	0.06618346
126	0x3cddd48e	0.027078893
127	0x3eaff51f	0.343667
128	0x3cf5e93a	0.030018438
129	0x3de8826c	0.11353001
130	0xbed331ef	-0.41249034
131	0x3e34a99d	0.17642827
132	0x3d61a142	0.055085428
133	0x3ee4b751	0.4467111
134	0x3d0aa07e	0.033844464
135	0xbc8ea8b8	-0.017414436
136	0x3c9a98ce	0.018871691
137	0x3adf37ce	0.0017030181
138	0xbbb32175	-0.005466635
139	0xbc0e9ea3	-0.008704814
140	0x3bee20c9	0.007267092
141	0xbc921bcb	-0.017835518
142	0x3d291ed7	0.041289177
143	0xbc8a4807	-0.016880048
144	0x3d9845a0	0.07435155
145	0x3e2f1ab5	0.17100032
146	0xbd783348	-0.06059578
147	0xbef30177	-0.47462055
148	0x3e458dac	0.19292325
149	0x3d882b76	0.066489145
150	0xbd119b0f	-0.035548266
151	0xbd32c9c0	-0.043649435
152	0x3d56dac6	0.052454732
153	0x3eb93ea1	0.36180595
154	0xbe98254d	-0.29715958
155	0x3a5a81e4	0.0008335395
156	0x3ebd0a42	0.3692189
157	0xbeead1bc	-0.4586314
158	0x3d046283	0.03232051
159	0x3e4c7fc9	0.19970621
160	0xbe3e423f	-0.18579958
161	0xbd5e9188	-0.05433801
162	0xbbf8ba8c	-0.0075905975
163	0x3d84cd11	0.06484426
164	0xbce4a835	-0.027912239
165	0xba18195e	-0.000580212
166	0xbf9693e8	-1.1763887
167	0x3d138773	0.036017846
168	0xbce2a1c7	-0.027665032
169	0x3d8c3463	0.068459295
170	0x3c3429e2	0.010996314
171	0xbea5db16	-0.32393712
172	0x3e9773e9	0.2958062
173	0x3c80773d	0.015681857
174	0x3d8836a4	0.06651047
175	0x3dfe63f9	0.12421412
176	0xbcae8039	-0.021301376
177	0x3e269e9c	0.16271442
178	0xbe829c20	-0.2550974
179	0xbdb1263c	-0.08649871
180	0x3c3535e5	0.011060213
181	0xbbcfc106	-0.006340149
182	0x3b93fba8	0.0045160837
183	0xbcfbf14b	-0.030754706
184	0x3f358eee	0.7092122
185	0xbd62a658	-0.05533442
186	0x3ca7c2ed	0.02047869
187	0xbd076ce9	-0.03306285
188	0x3b84946d	0.004046014
189	0x3c920db6	0.017828804
190	0xbb341f6b	-0.0027484547
191	0x3c4bb4ac	0.012433212
192	0xbe9e2d16	-0.30893773
193	0x3f2ad7a6	0.66735303
194	0xbe7d27fb	-0.24722283
195	0xbcbdd92d	-0.023174847
196	0x3d9c2925	0.07625035
197	0x3d5d8642	0.054083116
198	0x3dbde989	0.09273059
199	0x3c288923	0.010286602
200	0xbe846092	-0.25854927
201	0xbd95947b	-0.07303711
202	0x3e5c3e4c	0.2150814
203	0xbe88b285	-0.266987
204	0x3e15fbbb	0.14646809
205	0xbe0dba89	-0.13840689
206	0xbe4922be	-0.1964216
207	0x3e8ac993	0.27106914
208	0x3eb42402	0.35183722
209	0xbd1fd262	-0.039018996
210	0x3d9640a1	0.07336546
211	0xbe5f73ea	-0.21821561
212	0xbe2d2844	-0.16909891
213	0xbd4e181f	-0.050315972
214	0xbe7dca23	-0.2478414
215	0x3cfa9600	0.030589104

encoder.level2.0.d1.conv.1.weight f4 [24]
0	0x3ee67395	0.45010057
1	0x0004ce7c	4.41415e-40
2	0x3eb2329a	0.3480423
3	0x3f16b487	0.5886921
4	0x3eea21bd	0.45728865
5	0x3f374033	0.71582335
6	0x3ea3d3c1	0.31997493
7	0x3f220db4	0.6330216
8	0x3eea0462	0.4570647
9	0x3ed90640	0.4238758
10	0x3eea096b	0.4571031
11	0x3f1dc5b4	0.61629796
12	0x3f075c44	0.5287516
13	0x3ebc68f3	0.3679882
14	0x3e803b22	0.25045115
15	0xbe65c1a7	-0.22437154
16	0x3eeff289	0.46864727
17	0x3ec305d7	0.38090393
18	0x3eee8db5	0.4659249
19	0xbf03b080	-0.5144119
20	0x3f1f2b4a	0.6217543
21	0x3f1c3412	0.61016953
22	0xbe939185	-0.2882196
23	0x3f062d53	0.5241291

encoder.level2.0.d1.conv.1.bias f4 [24]
0	0x3d9cfc7c	0.07665345
1	0xb05c5db5	-8.01687e-10
2	0xbecab734	-0.39592898
3	0xbcf784c5	-0.030214677
4	0x3e5fd3d4	0.2185815
5	0x3e39ebbf	0.18156336
6	0xbf0216fb	-0.50816315
7	0x3d24eb7f	0.04026365
8	0x3e06da4e	0.13169214
9	0xbda11af6	-0.078664705
10	0xbf0e9534	-0.55696416
11	0xbd559792	-0.0521465
12	0xbecaa751	-0.39580777
13	0xbe55a294	-0.208628
14	0x3a85764c	0.001018235
15	0xbc384152	-0.011246042
16	0x3d63ce0b	0.05561642
17	0x3f29b362	0.6628934
18	0x3e3f7a43	0.18698983
19	0x3e4db39d	0.20088048
20	0x3e70a725	0.2350126
21	0x3e198061	0.14990379
22	0xbc116b07	-0.008875615
23	0x3e0bac61	0.13639976

encoder.level2.0.d1.conv.1.running_mean f4 [24]
0	0xbbb0cf8c	-0.0053958353
1	0x00000004	6e-45
2	0xb9b99365	-0.00035395767
3	0xbae21c5d	-0.0017250885
4	0xb99d6999	-0.0003002405
5	0x39eab25f	0.00044764855
6	0x3c057c4a	0.008147309
7	0xba5e0e63	-0.0008470772
8	0xbb0fe941	-0.0021959099
9	0xba28a988	-0.00064339535
10	0x3a3751f4	0.0006993108
11	0xbb797747	-0.003806548
12	0x3a17d6cd	0.00057922007
13	0xbc3574bb	-0.011075194
14	0x3ac79857	0.0015227896
15	0x380c24b8	3.3412798e-05
16	0xba1bdd21	-0.00059457315
17	0xbb6b9db6	-0.0035952157
18	0xbd76bbc1	-0.06023765
19	0x368eba63	4.253628e-06
20	0x3ba07a95	0.0048974254
21	0xbac2adaa	-0.0014852781
22	0x3cb5951b	0.022165826
23	0xb85b695b	-5.231179e-05

encoder.level2.0.d1.conv.1.running_var f4 [24]
0	0x394c60ce	0.00019491019
1	0x00000004	6e-45
2	0x39178f7a	0.00014453931
3	0x3892a316	6.9921996e-05
4	0x385139fa	4.9883478e-05
5	0x388417dd	6.2986954e-05
6	0x393ebb8e	0.00018189682
7	0x38e94d7e	0.0001112474
8	0x37b7d60b	2.1914972e-05
9	0x3806d5e2	3.2147283e-05
10	0x38884a11	6.498781e-05
11	0x393976ed	0.00017687278
12	0x37c2b330	2.3210043e-05
13	0x3a01720f	0.00049379555
14	0x39560c1c	0.00020413141
15	0x3399f33b	7.168861e-08
16	0x39214737	0.00015380686
17	0x38b693c6	8.705961e-05
18	0x3b5a492d	0.0033307776
19	0x38004674	3.0583193e-05
20	0x3a497628	0.0007685148
21	0x38e0b18d	0.00010714224
22	0x383a1413	4.436455e-05
23	0x382f4fac	4.179745e-05

encoder.level2.0.d1.act_conv1x1.0.weight f4 [24]
0	0xbe8dd6b5	-0.2770287
1	0x0b71e171	4.6584515e-32
2	0x3f365711	0.712266
3	0x3ec71bc1	0.38888362
4	0x3ed16678	0.4089849
5	0x3ebb7cba	0.36618596
6	0x3f1288ad	0.572398
7	0x3e2530be	0.16131875
8	0xbdc24b40	-0.09487009
9	0x3f1c355c	0.6101892
10	0x3f3c1cc4	0.7348139
11	0x3ecb4113	0.39698085
12	0x3f15fd15	0.585893
13	0xbea5763a	-0.32316762
14	0xbf30b1fa	-0.6902157
15	0xbb5a8e6c	-0.003334905
16	0xbda6c922	-0.08143832
17	0x3e2fe2a2	0.17176297
18	0x3eacf794	0.33782637
19	0xbd881a65	-0.06645659
20	0x3e99b3e2	0.30020052
21	0xbe33b36f	-0.17548917
22	0xbe419de1	-0.18907882
23	0x3e1cdcf4	0.15318662

encoder.level2.0.d1.act_conv1x1.1.weight f4 [24, 24, 1, 1]
0	0xbe17c3fb	-0.14820854
1	0x91893cbb	-2.1652217e-28
2	0x3cb7ebe2	0.022451345
3	0x3cb966c5	0.022632012
4	0xbcd6e4e7	-0.026232196
5	0x3dbb2fdf	0.0913999
6	0x3d4541dc	0.04815851
7	0xbd750c2a	-0.059826054
8	0x3c11b1a3	0.00889245
9	0xbc66e83d	-0.014093456
10	0x3cd03b67	0.02541895
11	0x3ad0eb89	0.0015939336
12	0xbd53bfb6	-0.0516965
13	0xbcb04261	-0.021516027
14	0x3bd0f7c5	0.0063771927
15	0x3903be27	0.00012563971
16	0xbe08ade7	-0.13347588
17	0xbcac4da3	-0.021033114
18	0x3cdeafd7	0.027183456
19	0x3d608fda	0.054824688
20	0x3d3ef25e	0.046617858
21	0xbe080c96	-0.13286051
22	0x3bd52936	0.006505157
23	0x3c58fe37	0.013244203
24	0x3e892f25	0.2679378
25	0x9118b5f6	-1.2046757e-28
26	0x3b9206aa	0.004456361
27	0x3e3f5213	0.18683653
28	0xbcad275b	-0.02113693
29	0xbc1b8954	-0.009493191
30	0xbc149664	-0.009069059
31	0xbbfa956a	-0.007647206
32	0xbd4b7a8e	-0.049677424
33	0xbd860fe2	-0.06545998
34	0xbc9976f9	-0.018733488
35	0x3dc0920d	0.09402857
36	0xbc441b89	-0.0119694555
37	0xbdfaf636	-0.12253992
38	0x3d4129d1	0.04715902
39	0xb9e2d98e	-0.0004326817
40	0xbbd14c3a	-0.0063872607
41	0x3cbd1fdd	0.023086483
42	0xb9f2e658	-0.00046329456
43	0xbc8b0ae5	-0.016972968
44	0xbbc464f1	-0.0059934785
45	0xbb5d9a40	-0.0033813864
46	0xbca566f6	-0.020190697
47	0xbdab166b	-0.08353885
48	0xbafaa91b	-0.0019123884
49	0x91b229a4	-2.8109111e-28
50	0xbb8fabc1	-0.0043844883
51	0xbd86ef17	-0.065885715
52	0x3d45a9d3	0.04825766
53	0x3b8ef0f0	0.004362218
54	0xbb3dc8c4	-0.0028958777
55	0xbcba4bcd	-0.022741223
56	0xbdc8e2b1	-0.09808863
57	0x3e358091	0.17724825
58	0x3b825c88	0.0039783157
59	0x3bbabd48	0.0056988336
60	0xbb96630a	-0.004589443
61	0x3b7ac515	0.0038264443
62	0x3bfca434	0.007710004
63	0x3a2d52db	0.00066117727
64	0xba38d464	-0.00070506916
65	0x3ca837eb	0.020534476
66	0x3b38d7eb	0.002820487
67	0x3a945691	0.0011317303
68	0xbbfaa63e	-0.007649212
69	0xbc1c338b	-0.009533773
70	0x3d47135d	0.04860245
71	0xbe7ca848	-0.24673569
72	0x3d15a1aa	0.036531128
73	0x9132bdbd	-1.4100192e-28
74	0x3d536586	0.051610492
75	0xbc336ce7	-0.010951257
76	0x3bdb87b6	0.0066995276
77	0xbca8a408	-0.020586029
78	0x3ca546f0	0.020175427
79	0x3db1e84d	0.08686886
80	0x3c9f7279	0.019463765
81	0xba19c95b	-0.0005866491
82	0xbc6ea436	-0.014565518
83	0x3d092f56	0.03349241
84	0x3c4f39a6	0.012648022
85	0xbe0d63c5	-0.1380759
86	0xbd3fe0bb	-0.04684518
87	0xba1bd7e5	-0.00059449516
88	0x3d3e76b0	0.046499908
89	0x3deee525	0.116647996
90	0xbe153869	-0.145723
91	0x3d3127af	0.043250736
92	0xbd23b8c3	-0.039971124
93	0xbd9dc5b2	-0.07703723
94	0x3d191abb	0.037379008
95	0xbd3ce9f8	-0.046121567
96	0x3dab2d33	0.083582304
97	0x1083bdf6	5.196307e-29
98	0xbb294a93	-0.0025831803
99	0x3a93e109	0.0011282276
100	0x3d48d9fd	0.049036015
101	0xbc8e689a	-0.017383862
102	0x3cb9e65c	0.022692852
103	0x3c39b4c9	0.011334606
104	0xbc326293	-0.01088776
105	0xbd3262e2	-0.043551333
106	0x3d43d168	0.047807127
107	0x3d907b7d	0.070548035
108	0x3d259154	0.0404218
109	0x3b000f5e	0.001954041
110	0xbd494709	-0.04914001
111	0x3a3471e3	0.00068834255
112	0xbde0f12d	-0.10983501
113	0x3daccfdf	0.08438086
114	0x3dae8c59	0.08522863
115	0xbdb3ff95	-0.08788983
116	0xbd444d29	-0.04792515
117	0xbd00907e	-0.0313878
118	0x3cfd5c4b	0.030927798
119	0xbd1812d6	-0.03712734
120	0xbcafcf85	-0.021461258
121	0x91873675	-2.1332806e-28
122	0xbad547db	-0.0016272025
123	0x3c81f3d3	0.015863335
124	0xbcccb4cd	-0.024988556
125	0xbd14301f	-0.036178704
126	0x3dae9f31	0.08526457
127	0xbe6f399c	-0.2336182
128	0x3d419a89	0.047266517
129	0x3cdc5f92	0.02690104
130	0x3d5fb816	0.054618917
131	0xbd37acb4	-0.044842437
132	0xbd0fdcc7	-0.03512266
133	0x3d29c962	0.04145182
134	0xbd417434	-0.04722996
135	0x3a8216c2	0.0009924995
136	0xbd552b96	-0.05204352
137	0xbd522f48	-0.051314622
138	0x3dec9ac6	0.11552958
139	0x3d00d9b7	0.03145763
140	0x3d8aaba3	0.06771018
141	0x3ce01a20	0.027356207
142	0x3d720ab3	0.059092235
143	0x3cb89a76	0.02253459
144	0x3d3e83f4	0.04651256
145	0x10231f75	3.2170316e-29
146	0x3e0243a1	0.12721111
147	0x3c0b9aca	0.008520791
148	0xbc9b68e4	-0.018970914
149	0x3c049615	0.008092423
150	0xbd69880b	-0.057014506
151	0x3b7767ca	0.0037751072
152	0xb9baa513	-0.00035599674
153	0x3c0bee75	0.008540739
154	0x3cdac3ad	0.026704634
155	0x3b344bf4	0.0027511092
156	0xbdc9cc7e	-0.09853457
157	0x3ca4e3b3	0.020128107
158	0xbc9d290d	-0.019184614
159	0x3a332e7c	0.0006835235
160	0xbd90fcd7	-0.070794754
161	0xbcf714a5	-0.030161211
162	0x3e22d517	0.159016
163	0xbc9c83cb	-0.019105813
164	0xbd12e61a	-0.035863973
165	0xbe08d6f6	-0.13363251
166	0x3d80288c	0.06257734
167	0xbbefe475	-0.0073209354
168	0x3b623481	0.0034516158
169	0x10e7614f	9.126336e-29
170	0xbbfcae7d	-0.0077112303
171	0x3e0806b1	0.13283803
172	0xbaa4d5f9	-0.0012575976
173	0xba0debda	-0.0005413868
174	0xbd1eb604	-0.038747802
175	0x3bf10ae8	0.0073560365
176	0x3b828123	0.0039826795
177	0x3d79ddc9	0.061002526
178	0xbd9be814	-0.07612625
179	0x3eac5e20	0.33665562
180	0xbc6d0863	-0.014467332
181	0x3d9a48c8	0.07533413
182	0x3bf09271	0.007341676
183	0x3a69c3c1	0.0008917414
184	0x3d0db0b6	0.034592353
185	0xbd8073a9	-0.062720604
186	0x3ca1fd08	0.019773975
187	0x3a7c8cbc	0.0009634008
188	0xbc3217f2	-0.010869967
189	0x3d77f119	0.060532663
190	0x3d1c97f4	0.03823085
191	0x3c9f3308	0.019433513
192	0xbcb40a86	-0.021977674
193	0x91e1bd7a	-3.5615515e-28
194	0x3c3e5103	0.011615994
195	0x3d1e5d06	0.038662933
196	0x3cca4922	0.024693076
197	0xbca8a1c6	-0.020584952
198	0x3d4e5b2d	0.05037992
199	0xbdafbca7	-0.085809045
200	0x3db249dc	0.08705494
201	0x3c98bb6e	0.018644061
202	0xbda21b65	-0.07915381
203	0x3b5bfa9c	0.0033566123
204	0xbddad975	-0.10686008
205	0xbca10d96	-0.019659799
206	0xbd94c390	-0.07263863
207	0x3b138a1e	0.0022512744
208	0x3ccd6abe	0.025075313
209	0xbc988e11	-0.01862243
210	0xbcaf8765	-0.021426866
211	0xbb37f094	-0.002806698
212	0xbe546884	-0.20742995
213	0xbcb839a9	-0.022488432
214	0xbbde47fa	-0.0067834826
215	0x3d1484f1	0.036259595
216	0x3c9ddb45	0.019269595
217	0x91224150	-1.2799673e-28
218	0xbe157f9c	-0.1459946
219	0xbcc67250	-0.02422443
220	0xbb9880d8	-0.0046540312
221	0x3d55b949	0.052178655
222	0xbd753bb7	-0.0598714
223	0xbdfd22e8	-0.123601735
224	0x3d1fc7bd	0.039008845
225	0x3cdde0d0	0.027084738
226	0x3e1df272	0.15424517
227	0xbb5574d2	-0.003257085
228	0x3d4164f5	0.04721542
229	0xbcf7c0fd	-0.030243391
230	0xbc927f69	-0.01788302
231	0xb9dff86b	-0.0004271896
232	0xbc75bf18	-0.014999174
233	0x3c9de6e0	0.019275129
234	0xbc5a5950	-0.013326958
235	0x3d8eb23e	0.06967591
236	0x3d01e68e	0.031714015
237	0x3cfbcc46	0.030737054
238	0xbd34fbd5	-0.04418548
239	0xbc8e5f3a	-0.017379392
240	0x3d0a2a0c	0.033731505
241	0x111c1bf3	1.2314843e-28
242	0xbda56a38	-0.080769
243	0xbcd2124e	-0.025643494
244	0xbd092361	-0.033481006
245	0x3d053396	0.0325199
246	0x3c6d6a28	0.014490642
247	0xbb6f35b6	-0.003650052
248	0x3d5fa318	0.054598898
249	0xbb395205	-0.0028277647
250	0x3d1c4bfd	0.038158406
251	0x3d001b1b	0.03127585
252	0x3d7dabdb	0.061931472
253	0x3c409bfd	0.0117559405
254	0xbd52bab3	-0.05144758
255	0x3abdd8ef	0.0014484207

encoder.level2.0.d1.bn.weight f4 [24]
0	0x3df17914	0.11790672
1	0x3dde12b7	0.10843413
2	0x3e011008	0.12603772
3	0x3e273996	0.16330561
4	0x3e21633f	0.15760516
5	0x3e24dffe	0.16101071
6	0x3e0b69ca	0.13614574
7	0x3e3b095e	0.18265292
8	0x3e3c3b6b	0.18382041
9	0x3e0424f1	0.12904717
10	0xbe633c08	-0.22190869
11	0x3e0460f1	0.12927605
12	0x3e17fdd3	0.1484292
13	0x3e2e9369	0.1704842
14	0x3e244fe2	0.16046098
15	0x3e17c048	0.14819443
16	0xbb562537	-0.003267599
17	0x3e30c9e0	0.17264509
18	0x3e07d5e7	0.13265191
19	0x3def6967	0.11690026
20	0x3e262a9d	0.16227193
21	0x3e2549d4	0.16141444
22	0x3e1abe57	0.15111671
23	0x3e15e810	0.14639306

encoder.level2.0.d1.bn.bias f4 [24]
0	0x3ccf679b	0.025317958
1	0x3c7472b8	0.014919929
2	0x3cd0c53a	0.02548467
3	0x3c7676e4	0.015042994
4	0x3c606e01	0.013698102
5	0x3cb37965	0.021908471
6	0x3c922864	0.017841525
7	0x3cc53b47	0.024076117
8	0x3d007154	0.031358078
9	0x3c67f530	0.014157578
10	0xbc59b461	-0.013287635
11	0x3ca2d16e	0.019875254
12	0x3b8d39cf	0.00430987
13	0x3c95c9e6	0.01828475
14	0x3cf1d85a	0.02952211
15	0x3c66e4aa	0.014092604
16	0xbd8c40e1	-0.06848312
17	0x3cb76acd	0.022389794
18	0x3c693d30	0.01423578
19	0x3cfb4f01	0.03067732
20	0x3c95762f	0.01824483
21	0x3cafec44	0.021474965
22	0x3cb1bf1d	0.021697575
23	0x3c39ce3b	0.011340673

encoder.level2.0.d1.bn.running_mean f4 [24]
0	0xbd3c73bd	-0.046008814
1	0x3cfa5176	0.030556422
2	0xbd08f1fa	-0.03343389
3	0x3bb84417	0.0056233513
4	0x3c1afa84	0.009459142
5	0xbd2167cb	-0.039405625
6	0xbceb3fa0	-0.028716862
7	0x3d1fbf93	0.03900106
8	0xbd03be0d	-0.03216367
9	0x3cb2da1a	0.021832515
10	0xbcc75699	-0.024333285
11	0xbcb853b9	-0.02250086
12	0xbd16c8ef	-0.03681272
13	0xbdb54b99	-0.0885231
14	0xbd404a2f	-0.046945747
15	0x3d80be25	0.06286267
16	0xbb18841e	-0.0023272107
17	0x3dc3f28e	0.09567748
18	0xbc3a8147	-0.011383361
19	0xba4b99cc	-0.0007766753
20	0xbdc2e3a7	-0.095160775
21	0x3cfcaec5	0.030845055
22	0x3daf4a4b	0.08559092
23	0x3df3c92f	0.11903607

encoder.level2.0.d1.bn.running_var f4 [24]
0	0x3b11eb24	0.00222654
1	0x3aee9398	0.0018201945
2	0x3a800546	0.0009767197
3	0x3b1c6b9f	0.0023867858
4	0x3ac6c252	0.0015164113
5	0x3b72a20e	0.0037022862
6	0x3b5b5956	0.0033469996
7	0x3b923c8a	0.004462783
8	0x3ba71eb2	0.0051000947
9	0x3aa523c5	0.0012599161
10	0x39e39c86	0.00043413433
11	0x3aea16b8	0.0017859554
12	0x3a46d34d	0.0007584587
13	0x3bb45f07	0.005504492
14	0x3bb14723	0.0054100915
15	0x3b5512a3	0.003251233
16	0x370ad881	8.27585e-06
17	0x3b82fc21	0.0039973413
18	0x3af8951c	0.0018965336
19	0x3a1755a8	0.00057729566
20	0x3b0fee7c	0.0021962216
21	0x3ae32f3d	0.0017332804
22	0x3ba51ca4	0.0050388146
23	0x3b291d7a	0.0025804923
